Neural DG/code_Alexi/checkpoints/best_model.pt (torch, 20390 bytes, 5 tensors)

layers.0.weight f4 [64, 2]
0.22935992 0.20724782 -0.34314442 0.019039623 0.16065963 -0.008258717 0.25193685 0.040604185
0.22002012 0.12103669 0.017151818 0.19544381 -0.03059066 -0.0386972 -0.058737617 0.16686495
-0.18898652 -0.08201217 -0.24614134 -0.24067517 0.25482848 0.21348053 0.2735828 0.07028806
0.20701016 0.15657473 0.28544945 0.29935655 0.04088976 0.28510806 -0.024703255 -0.065359734
0.26483375 0.20427649 -0.2554442 -0.28057098 0.1157751 -0.08474766 0.011160287 0.19835608
0.258968 0.04349562 0.26478937 0.035829745 0.18159586 -0.052032676 -0.13849653 -0.16485974
-0.13180658 0.24837235 -0.07732864 0.20414634 0.23923646 -0.23367551 0.24004275 0.21802643
0.23954463 -0.167137 0.21309666 0.05297857 -0.19394863 0.13380788 -0.059521697 0.13767314
0.23560263 -0.13549645 0.2910171 0.081478 -0.2582235 -0.028964514 -0.031089887 -0.23217118
0.16174786 0.037853777 -0.05629868 0.27886537 0.13235462 -0.25605455 0.07337714 -0.064083785
0.08720079 0.04169764 0.21132304 0.21513273 0.16461077 0.05455136 0.15262446 -0.00082202256
0.07565583 0.04141556 -0.008741427 -0.061796226 -0.18335247 0.16560338 0.28828385 -0.029314954
-0.00889912 0.1980934 0.0351661 -0.028275976 0.19519816 -0.14882807 0.081583284 0.22006023
0.18083043 0.13150162 0.27058396 0.1214364 -0.4051744 0.0064223576 0.13287479 -0.04052221
0.07087463 -0.04677339 0.09835078 0.0714143 0.16102603 -0.07481237 0.05018238 0.16043432
-0.011823701 -0.13142963 -0.28336746 0.22366117 0.013451993 0.18225642 0.0046002604 0.06329982
00000000: 54dd 6a3e c638 543e a0b0 afbe fcf8 9b3c
00000010: f583 243e 924f 07bc defd 803e 9350 263d
00000020: f44c 613e 16e2 f73d f881 8c3c 6c22 483e
00000030: 4499 fabc f580 1ebd db96 70bd a5de 2a3e
00000040: af85 41be fff5 a7bd 7a0c 7cbe 8d73 76be
00000050: e178 823e a49a 5a3e 0b13 8c3e 30f3 8f3d
00000060: 79fa 533e 2055 203e 6e26 923e 4345 993e
00000070: 057c 273d aff9 913e 7b5e cabc 53db 85bd
00000080: 4a98 873e db2d 513e 95c9 82be 00a7 8fbe
00000090: 7f1b ed3d 2e90 adbd a3d9 363c db1d 4b3e
000000a0: 7497 843e 7728 323d 7992 873e 36c2 123d
000000b0: 44f4 393e 3720 55bd 09d2 0dbe fed0 28be
000000c0: 4ef8 06be 5255 7e3e 7a5e 9ebd bd0b 513e
000000d0: 67fa 743e a248 6fbe c4cd 753e 5242 5f3e
000000e0: 304b 753e f625 2bbe 0336 5a3e 0f00 593d
000000f0: 789a 46be ef04 093e 06cd 73bd 30fa 0c3e
00000100: d141 713e 95bf 0abe 3100 953e f0dd a63d
00000110: df35 84be fd46 edbc 38b0 febc 48be 6dbe
00000120: 3ba1 253e 900c 1b3d 7299 66bd 71c7 8e3e
00000130: f887 073e 9519 83be c146 963d 5c3e 83bd
00000140: 5496 b23d 25cb 2a3d 1165 583e c14b 5c3e
00000150: ba8f 283e 3f71 5f3d 9649 1c3e 007d 57ba
00000160: 72f1 9a3d 5da3 293d 3438 0fbc 0a1e 7dbd
00000170: c0c0 3bbe ef93 293e f199 933e ea25 f0bc
00000180: 9dcd 11bc ffd8 4a3e 540a 103d 05a3 e7bc
00000190: 07e2 473e 6366 18be 2315 a73d 7857 613e
000001a0: 9d2b 393e 5ca8 063e fb89 8a3e a6b3 f83d
000001b0: 0573 cfbe a472 d23b 5410 083e 9efa 25bd
000001c0: b826 913d 7495 3fbd 226c c93d a941 923d
000001d0: 02e4 243e 3a37 99bd 0a8c 4d3d e548 243e
000001e0: 32b8 41bc 7d95 06be 8a15 91be 6f07 653e
000001f0: c065 5c3c 6da1 3a3e c8bd 963b 56a3 813d

layers.0.bias f4 [64]
0.055807 0.24431598 0.06741953 0.11891757 -0.08198928 -0.51823413 0.3725519 -0.32340613
-0.00079398695 0.00078932167 -0.14962433 0.09006808 0.06955311 -0.090145715 -0.044612896 -6.0201815e-05
-0.08022683 -0.0003580509 0.15999179 -0.08436965 -0.0411084 0.10812825 0.1259519 -0.0008235153
-0.18868051 -0.14084183 -0.011437085 -0.02780401 -0.029354291 -0.0844814 0.38374603 -0.15577908
-0.044952735 0.049359184 0.00076597516 -0.014117856 0.09536478 -0.11969216 0.01936143 0.02671808
-0.060689118 -0.045587864 0.091248974 0.11836941 0.013023701 -0.0027258624 0.011710086 -0.07917757
-0.1692435 0.18705921 0.089140445 0.071771316 -0.061558902 0.075767905 0.08988232 -0.029918829
0.3497749 0.059513275 0.22238469 0.055916663 -0.0015920094 0.22350074 -0.115227535 -0.16623282
00000000: e195 643d f82d 7a3e 4013 8a3d 0e8b f33d
00000010: ffe9 a7bd feaa 04bf 1fbf be3e 7d95 a5be
00000020: 9023 50ba 7bea 4e3a 1f37 19be 9d75 b83d
00000030: dc71 8e3d 519e b8bd 03bc 36bd 3581 7cb8
00000040: f74d a4bd c7b8 bbb9 e3d4 233e ffc9 acbd
00000050: 4861 28bd 5872 dd3d 89f9 003e 2de1 57ba
00000060: 7735 41be d738 10be 9d62 3bbc 3cc5 e3bc
00000070: 6978 f0bc 9604 adbd 5c7a c43e 8d84 1fbe
00000080: 5c20 38bd db2c 4a3d b9cb 483a 944e 67bc
00000090: 9c4e c33d 2a21 f5bd dd9b 9e3c e0df da3c
000000a0: 2795 78bd 57ba 3abd bee0 ba3d a96b f23d
000000b0: 5c61 553c 62a4 32bb a9db 3f3c da27 a2bd
000000c0: 2b4e 2dbe 738c 3f3e 448f b63d d7fc 923d
000000d0: 3025 7cbd 342c 9b3d 3914 b83d 5518 f5bc
000000e0: b215 b33e 31c4 733d d0b8 633e df08 653d
000000f0: f9aa d0ba 61dd 643e 6afc ebbd f038 2abe

layers.1.weight f4 [64, 64]
-0.018365592 0.011031135 -0.012914621 0.07618631 0.1352795 0.46628362 -0.23217432 -0.140076
0.056244444 0.051960055 0.20388292 0.19261304 0.11589473 0.06687609 0.047052953 0.07511604
0.028694762 0.19433327 0.1000642 0.06773551 -0.20595497 0.08716387 -0.20367913 -0.21616647
0.23869713 0.06374045 -0.2046447 0.18408151 0.12626569 -0.086812764 -0.060827408 0.1875161
0.07719478 -0.19306447 -0.08314594 0.06462416 -0.1681178 -0.0868868 0.015468009 0.09084542
0.028511189 -0.20507649 -0.15800756 -0.039177686 -0.030528147 -0.06458834 0.1915647 0.15803927
0.21261832 -0.2668913 -0.22759467 0.19008279 -0.067075245 -0.21532163 0.23032458 -0.06269817
-0.1332481 0.15086487 -0.16515751 -0.12439258 0.13782369 -0.07517934 -0.09291353 0.11107703
0.037438437 0.14687929 0.1558949 0.20174098 0.15907799 0.22584155 -0.24848099 -0.10901536
-0.18671937 0.04337979 0.07904955 -0.18869738 0.056094404 -0.0014815473 0.014193979 0.063679144
0.14424564 0.025608564 0.0058644074 0.19779725 0.078525215 0.0074588335 0.071037896 -0.1722073
0.062600054 -0.0038168477 -0.09718105 0.029669082 -0.022713838 0.011522241 -0.23880419 -0.14696687
0.17038073 -0.092810005 0.22213194 0.20033306 0.107983544 0.22037736 0.03123561 -0.1122525
0.052023165 0.04560014 0.13160878 -0.18999651 0.20507117 -0.17035729 0.15602276 0.025900347
0.18822569 -0.24521375 -0.18986614 -0.20595548 0.09561717 -0.06496343 0.27532965 -0.19574912
0.13138779 -0.13976642 -0.09931437 -0.0076258094 -0.1933377 -0.14627197 0.20974846 0.18574901
0.20253064 0.1411213 0.03625413 0.16867845 -0.112311356 -0.34739548 0.30192602 0.09802771
-0.1815914 -0.08549036 -0.1362057 -0.20299597 0.07972401 -0.18470642 0.16169326 0.1103514
-0.045583654 -0.19101082 -0.041765127 -0.16707298 -0.1553645 -0.12810774 0.21869761 0.18933459
-0.16148861 0.17557083 0.046865743 0.103828385 0.12667309 0.05049837 0.1993076 0.13745838
0.002716799 0.09413805 0.074228086 0.011713861 0.1977573 -0.17736377 0.08073065 0.064062655
0.10262934 -0.061468992 -0.060973693 -0.02085517 0.06996318 0.13561398 0.19728445 -0.16661237
0.15165906 -0.02832048 0.21923248 0.18758032 0.08465147 -0.14044088 -0.059739448 -0.033368085
-0.0842375 -0.012946052 0.020089785 0.116025575 -0.102819666 0.1950445 0.15562747 -0.054366756
0.12749338 0.19410463 0.005878227 0.19702989 -0.3517385 0.02688292 -0.075300835 1.0178008
-0.055755112 -0.072699234 -0.28838226 0.28912196 -0.014438872 -0.052514553 0.12942761 0.22900411
-0.08209299 -0.09160879 -0.2198706 -0.04940808 -0.1644838 0.06788211 0.0316759 -0.09967572
-0.07920291 0.018730199 0.31067407 0.23968874 0.4851623 -0.513922 0.2235858 -0.34441024
0.056199074 -0.030870508 0.053869553 0.04955367 0.11624418 -0.18442191 -0.2540313 -1.1090559
-0.6824564 0.17471361 -0.05399636 0.20324574 -0.019551449 -0.13182981 0.26641226 0.6390732
-0.1704635 0.07139272 -0.3378027 -0.04107782 -0.29583374 -0.0494563 0.14122812 -0.50118023
-0.09529618 -0.03976816 -0.36889154 -0.08804562 -0.17769328 0.0795712 -0.16664921 0.25726783
00000000: 7073 96bc efbb 343c d997 53bc 9107 9c3d
00000010: b686 0a3e babc ee3e 1bbf 6dbe 1570 0fbe
00000020: 9360 663d 11d4 543d afc6 503e 5a3c 453e
00000030: 375a ed3d 55f6 883d 99ba 403d 70d6 993d
00000040: 4711 eb3c 4dff 463e 76ee cc3d eab8 8a3d
00000050: dce5 52be f982 b23d 4391 50be be5a 5dbe
00000060: 056d 743e 5a8a 823d 618e 51be dd7f 3c3e
00000070: cb4b 013e e4ca b1bd 2926 79bd 3804 403e
00000080: 4c18 9e3d b1b2 45be 6b48 aabd ac59 843d
00000090: 1327 2cbe b5f1 b1bd 886d 7d3c 2a0d ba3d
000000a0: 4c90 e93c 92ff 51be bccc 21be c878 20bd
000000b0: 2a16 fabc e446 84bd 8929 443e 0cd5 213e
000000c0: 9eb8 593e faa5 88be 940e 69be 10a5 423e
000000d0: bf5e 89bd 467d 5cbe 35da 6b3e e667 80bd
000000e0: 3172 08be 527c 1a3e 0d1f 29be 89c1 febd
000000f0: a721 0d3e a0f7 99bd 7349 bebd 5b7c e33d
00000100: 0c59 193d 8667 163e eaa2 1f3e 3095 4e3e
00000110: 57e5 223e 0243 673e cd71 7ebe 7243 dfbd
00000120: 5d33 3fbe 02af 313d bbe4 a13d e339 41be
00000130: 3fc3 653d 7a30 c2ba dd8d 683c 366a 823d
00000140: 21b5 133e 0dc9 d13c 372a c03b 5d8b 4a3e
00000150: d4d1 a03d 3b69 f43b 517c 913d 1c57 30be
00000160: 7534 803d 1424 7abb dc06 c7bd 930c f33c
00000170: 5f12 babc c8c7 3c3c 1689 74be 7c7e 16be
00000180: 4978 2e3e 2c13 bebd 8e76 633e 1c24 4d3e
00000190: 7a26 dd3d 9aaa 613e d2e1 ff3c a4e4 e5bd
000001a0: 3e16 553d 36c7 3a3d 74c4 063e 728e 42be
000001b0: 2dfe 513e 2472 2ebe 6ec4 1f3e f72c d43c
000001c0: 3cbe 403e 5019 7bbe 456c 42be fee5 52be
000001d0: efd2 c33d 8c0b 85bd 02f8 8c3e 7572 48be
000001e0: 858a 063e ee1e 0fbe 5565 cbbd ede1 f9bb
000001f0: 51fa 45be 52c8 15be 4dc8 563e fd34 3e3e
00000200: 3164 4f3e 1a82 103e 367f 143d 0bba 2c3e
00000210: 7f03 e6bd d2dd b1be 0c96 9a3e c1c2 c83d
00000220: 19f3 39be 9215 afbd 8279 0bbe 2dde 4fbe
00000230: 5746 a33d ae23 3dbe eb92 253e eaff e13d
00000240: edb5 3abd 5798 43be e911 2bbd 2e15 2bbe
00000250: df17 1fbe ad2e 03be 44f2 5f3e ede0 413e
00000260: 455d 25be d7c8 333e 4bf6 3f3d faa3 d43d
00000270: 97b6 013e 61d7 4e3d 4b17 4c3e e4c1 0c3e
00000280: 530c 323b 73cb c03d e504 983d 7eeb 3f3c
00000290: e480 4a3e d99e 35be 1c56 a53d 4833 833d
000002a0: 552f d23d e9c6 7bbd 8dbf 79bd 76d8 aabc
000002b0: db48 8f3d 64de 0a3e ef04 4a3e 6f9c 2abe
000002c0: 834c 1b3e 5a00 e8bc 7b7e 603e 0e15 403e
000002d0: c05d ad3d bccf 0fbe 5ab1 74bd f9ac 08bd
000002e0: b684 acbd ad1b 54bc 5593 a43c d19e ed3d
000002f0: 1e93 d2bd bfb9 473e cf5c 1f3e adaf 5ebd
00000300: a08d 023e 5dc3 463e 249e c03b 34c2 493e
00000310: 1217 b4be 9239 dc3c 5337 9abd 4c47 823f
00000320: 795f 64bd 56e3 94bd d7a6 93be cb07 943e
00000330: 0591 6cbc 8019 57bd ac88 043e 0e80 6a3e
00000340: 5f20 a8bd 649d bbbd c225 61be 2060 4abd
00000350: 716e 28be c705 8b3d 97be 013d c922 ccbd
00000360: 2335 a2bd 1370 993c ac10 9f3e f770 753e
00000370: 3167 f83e 6490 03bf adf3 643e 8a56 b0be
00000380: 0031 663d 26e4 fcbc 52a6 5c3d caf8 4a3d
00000390: 6e11 ee3d 19d9 3cbe 6410 82be 8bf5 8dbf
000003a0: 76b5 2ebf 20e8 323e 4a2b 5dbd a71f 503e
000003b0: 5c2a a0bc 65fe 06be 3067 883e 4d9a 233f
000003c0: fc8d 2ebe 5936 923d 7af4 acbe 3741 28bd
000003d0: 8577 97be b092 4abd 1b9e 103e 594d 00bf
000003e0: a52a c3bd f0e3 22bd 5adf bcbe 4351 b4bd
000003f0: 3af5 35be 3af6 a23d 17a6 2abe 9cb8 833e

layers.1.bias f4 [64]
-0.087875545 -0.08109474 0.09082397 0.048970547 0.078796774 -0.3006627 -0.07661079 -0.086774
-0.014057401 0.016198706 -0.07613047 0.2443224 0.08701497 -0.05641005 -0.023507338 -0.0077111744
0.1009524 0.0776068 -0.1777699 -0.0053645535 -0.005441793 0.04653898 -0.0805619 -0.086065255
-0.008472227 -0.005417612 0.08297867 -0.014092238 0.0003124729 0.071193926 0.020387473 0.07784857
-0.081610225 0.08384615 -0.2782029 0.0778384 -0.010964975 0.09487378 -0.004411821 -0.08003079
0.0 -0.01942816 -0.01260542 0.15445659 0.07686041 -0.017247641 -0.0062463735 0.08471824
0.079408154 0.08088418 0.0976435 0.21320501 0.0 -0.076151505 -0.0094083 0.09125396
0.07931126 -0.01640028 -0.00074447354 0.077337645 -0.03033574 0.003812219 -0.007404454 0.10080187
00000000: 18f8 b3bd 0015 a6bd eb01 ba3d 5795 483d
00000010: 3460 a13d 76f0 99be 1ee6 9cbd 91b6 b1bd
00000020: 0351 66bc 26b3 843c 4bea 9bbd a72f 7a3e
00000030: e834 b23d 390e 67bd 7692 c0bc 05ae fcbb
00000040: 22c0 ce3d 50f0 9e3d 5009 36be 23c9 afbb
00000050: 1151 b2bb a89f 3e3d a3fd a4bd fb42 b0bd
00000060: 18cf 0abc 3986 b1bb b9f0 a93d 21e3 66bc
00000070: 67d3 a339 1fce 913d a103 a73c 126f 9f3d
00000080: 4323 a7bd 88b7 ab3d 9c70 8ebe bd69 9f3d
00000090: 70a6 33bc 2f4d c23d 0991 90bb 2fe7 a3bd
000000a0: 0000 0000 ce27 9fbc f786 4ebc de29 1e3e
000000b0: fe68 9d3d ed4a 8dbc 61ae ccbb c280 ad3d
000000c0: bea0 a23d 9ba6 a53d 51f9 c73d 6a52 5a3e
000000d0: 0000 0000 52f5 9bbd 4525 1abc 5be3 ba3d
000000e0: f16d a23d e159 86bc c628 43ba 3363 9e3d
000000f0: a882 f8bc 6cd6 793b 10a1 f2bb 3671 ce3d

layers.2.weight f4 [1, 64]
-0.108372636 -0.18245885 0.18881358 0.43558177 0.10235537 -0.44357583 -0.18786225 -0.12687562
-0.25086927 0.38620216 -0.34425235 -0.66112673 0.36953095 0.14487799 -0.19086537 -0.072987355
0.2990489 0.21703853 -0.579749 0.19804503 0.16775233 -0.7411063 -0.031521007 -0.20769478
-0.038196202 0.06808646 0.30113396 -0.2423492 -0.41714218 -0.1929484 -0.16903684 0.080442674
-0.27349246 0.034813803 -0.34608567 0.17159113 -0.21192276 0.026088582 0.11505034 -0.07995288
0.049120963 -0.41117948 0.17989886 -0.5581911 0.036412176 -0.051220946 -0.05859688 0.31180546
0.1492978 0.157914 -0.5354857 -0.4540352 0.15516052 -0.28952646 0.0774752 0.12087258
0.10657177 -0.0003060291 0.043604832 0.1439412 -0.3470346 -0.4031632 0.07177104 0.3592329
00000000: 79f2 ddbd 7ed6 3abe 5958 413e 9304 df3e
00000010: b19f d13d 5f1c e3be f65e 40be afeb 01be
00000020: f071 80be 4abc c53e d841 b0be 9a3f 29bf
00000030: 2933 bd3e e55a 143e 3672 43be 657a 95bd
00000040: f01c 993e 593f 5e3e 6e6a 14bf 51cc 4a3e
00000050: 44c7 2b3e 24b9 3dbf 2c1c 01bd f1ad 54be
00000060: 9f73 1cbd ea70 8b3d 3b2e 9a3e 642a 78be
00000070: a993 d5be 4494 45be fe17 2dbe 21bf a43d
00000080: 3407 8cbe eb98 0e3d 2432 b1be 96b5 2f3e
00000090: 4802 59be b9b7 d53c 839f eb3d 56be a3bd
000000a0: 1033 493d 1e86 d2be 6837 383e 9de5 0ebf
000000b0: ef24 153d 0ecd 51bd 4803 70bd f7a4 9f3e
000000c0: 86e1 183e 35b4 213e 9715 09bf 4d77 e8be
000000d0: 66e2 1e3e d03c 94be 51ab 9e3d 0b8c f73d
000000e0: 4d42 da3d 8872 a0b9 fb9a 323d 5265 133e
000000f0: 85ae b1be 686b cebe b2fc 923d 60ed b73e
