Neural DG/code_Alexi/checkpoints/Gudenov_basis3_best.pt (torch, 71104 bytes, 5 tensors)

layers.0.weight f4 [128, 2]
0	0x3e367992	0.17819813
1	0xbd1ba989	-0.03800348
2	0xbdad13dc	-0.084510535
3	0xbdb83351	-0.08994163
4	0xbe7f707a	-0.2494525
5	0x3d9b5bfd	0.07585905
6	0xbe1b5d76	-0.15172371
7	0x3e436035	0.19079669
8	0x3d8fff53	0.07031121
9	0x3d00db1d	0.031458963
10	0xbe5eedcc	-0.217704
11	0xbe268d07	-0.16264735
12	0x3e241d90	0.16026902
13	0xbe2b23b6	-0.16712841
14	0xbb955fe8	-0.004558552
15	0x3d9f2b76	0.077719614
16	0x3d38dce9	0.04513255
17	0xbe124eac	-0.14287823
18	0xbe526cd0	-0.20549321
19	0x3dd3b6d9	0.1033761
20	0xbe447847	-0.19186507
21	0xbd9f66dd	-0.077832915
22	0xbe4debf4	-0.2010954
23	0xbe546b81	-0.20744134
24	0xbdeb9d3c	-0.115045995
25	0xbd70375f	-0.058646556
26	0xbe75bec1	-0.23998548
27	0x3ddfb9be	0.109240994
28	0x3ca7bdaf	0.02047619
29	0x3e4373c6	0.19087133
30	0xbc73639c	-0.014855292
31	0x3cd8c2a7	0.026460005
32	0xbe1b6da6	-0.15178546
33	0xbe5cd770	-0.21566558
34	0xbe2de15d	-0.169805
35	0xbc01f91a	-0.007932926
36	0xb93e3a1c	-0.0001814146
37	0xbd17896d	-0.036996294
38	0xbd28fdcc	-0.041257665
39	0xbe44f53a	-0.19234172
40	0x3de9e32b	0.11420282
41	0x3e434e5d	0.19072862
42	0xbda54429	-0.08069641
43	0xbdc4f76f	-0.09617507
44	0x3dd1dfd1	0.10247768
45	0x3d928e0d	0.07156
46	0xbe06a21e	-0.1314778
47	0xbe39d7bc	-0.18148702
48	0x39221970	0.00015459
49	0x3d40ef39	0.04710314
50	0x3e0423b5	0.12904246
51	0xbc930b95	-0.017949859
52	0xbd0911d6	-0.033464275
53	0x3e1ab30a	0.1510736
54	0x3d73cdf9	0.059522603
55	0x3e29493f	0.16531847
56	0xbdf58c99	-0.119897075
57	0x3e5d151c	0.21590084
58	0x3de4673b	0.11152502
59	0xbe308348	-0.1723758
60	0x3e240521	0.16017582
61	0x3e1d442f	0.15358041
62	0x3ca2c4b8	0.019869193
63	0x3d5548ec	0.052071497
64	0x3e61b98f	0.22043441
65	0xbe25a5de	-0.16176555
66	0xbdc367cd	-0.09541283
67	0xbc84e7b8	-0.016223773
68	0xbdca85b1	-0.09888781
69	0xbe1fb70c	-0.1559717
70	0x3d8616d3	0.06547322
71	0x3c935cfc	0.017988674
72	0xbe58793d	-0.21139999
73	0xbe0ffd3e	-0.14061448
74	0x3e3b3961	0.18283607
75	0x3e0a0be1	0.13481094
76	0xbd25917c	-0.040421948
77	0xbe304e55	-0.17217381
78	0xbdb9425a	-0.09045859
79	0xbe287096	-0.16449198
80	0x3d727d52	0.059201546
81	0xbe15d9fa	-0.14633933
82	0x3e084371	0.13306977
83	0xbe03b228	-0.1286093
84	0xbd3012f6	-0.042986833
85	0x3e6552aa	0.22394815
86	0x3d9cc3d5	0.076545395
87	0xbd42ecbc	-0.04758905
88	0xbe742acf	-0.23844455
89	0x3d82b9f6	0.063831255
90	0x3e64b525	0.22334726
91	0x3dc6e3bc	0.09711406
92	0x3ddc72f9	0.10764117
93	0x3dd74db3	0.10512867
94	0x3de6bfc9	0.11267049
95	0xbe51bc9b	-0.20482104
96	0xbdd8bc8e	-0.10582839
97	0x39f7f688	0.0004729519
98	0x3e46156f	0.19344114
99	0xbb1ddbfc	-0.002408742
100	0xbe3e5fd2	-0.1859124
101	0xbe0c5692	-0.13704899
102	0x3e5b73a8	0.21430838
103	0xbdbb3cbe	-0.09142445
104	0x3d9de46d	0.077095844
105	0xbc581261	-0.013187976
106	0x3e49e312	0.19715527
107	0xbde9f308	-0.11423308
108	0x3e243a87	0.16037951
109	0x3cb9c147	0.02267517
110	0x3e39fee2	0.18163636
111	0xbdc73c74	-0.097283274
112	0x3dda527a	0.106602624
113	0x3e38d27f	0.18049048
114	0xbd253232	-0.040331073
115	0x3dbbc9e2	0.091693655
116	0x3d88cac3	0.06679299
117	0x3da12298	0.07867926
118	0x3dfa7be6	0.12230663
119	0xbcc0b164	-0.023522086
120	0x3d59a1ba	0.05313275
121	0x3d5947a5	0.05304684
122	0xbe30caf0	-0.17264915
123	0xbc5d14ce	-0.01349373
124	0x3d9d9101	0.07693673
125	0xbe1318a0	-0.14364862
126	0x3e3520e3	0.17688327
127	0x3e356827	0.17715512
128	0x3d3a2dde	0.0454539
129	0xbdcc1138	-0.09964222
130	0x3e53cd3e	0.20683762
131	0xbe2d3ddc	-0.16918129
132	0x3e1e4e56	0.1545957
133	0x3e0c3d97	0.1369537
134	0x3df4a14c	0.119448274
135	0xbdc22c36	-0.09481089
136	0x3d9e633f	0.077337734
137	0x3e3d4ea7	0.18487035
138	0xbe2be096	-0.16784891
139	0xbdfc811b	-0.123293124
140	0xbc849874	-0.016185977
141	0x3d56d2ee	0.052447252
142	0x3dc1d6d6	0.09464805
143	0xbe279b64	-0.1636787
144	0xbe05b9f6	-0.1305922
145	0x3e6dcb11	0.23221995
146	0x3d4e17b2	0.050315566
147	0xbdea7aaa	-0.114491776
148	0xbbe38292	-0.0069430554
149	0x3dd139b7	0.10216086
150	0xbcd03c1b	-0.025419286
151	0xbe9174d8	-0.28409457
152	0x3dff26ea	0.12458594
153	0xbe007799	-0.12545623
154	0x3d716754	0.058936432
155	0x3c8ad9ab	0.016949495
156	0xbdc00cc7	-0.09377437
157	0xbe220ea7	-0.15825902
158	0x3e3a1b2d	0.18174429
159	0xbdbc26cd	-0.09187088
160	0xbd72f74c	-0.059317872
161	0x3debd26e	0.11514746
162	0xbd8dce3e	-0.06924103
163	0x3df305d8	0.11866349
164	0xbc6382db	-0.013886179
165	0x3da9593d	0.08268974
166	0xbc8e9ddf	-0.017409263
167	0x3d748794	0.05969961
168	0xbc9c677e	-0.019092318
169	0x3a9fc822	0.0012190382
170	0xbd3f1186	-0.04664757
171	0xbdb04ae6	-0.08608036
172	0xbd92259c	-0.0713608
173	0x3e1ab43f	0.15107821
174	0xbdf404d2	-0.11914982
175	0x3e50f4f8	0.20405948
176	0x3d58f885	0.05297138
177	0xbda3b63e	-0.07993744
178	0xbdc12fa5	-0.094329156
179	0x3e0e90b2	0.13922384
180	0x3e58d59f	0.2117524
181	0x3c956e70	0.018241137
182	0xbe05eca0	-0.13078547
183	0xbd8a0033	-0.06738319
184	0xbd250979	-0.040292237
185	0x3ddf31e5	0.108981885
186	0xbea4e208	-0.32203698
187	0xbcf0687a	-0.029346693
188	0x3dc031ff	0.09384536
189	0x3e609ccd	0.21934815
190	0x3e1ab499	0.15107955
191	0x3d03bc88	0.03216222
192	0xbe0e9d55	-0.13927205
193	0x3e674b24	0.22587258
194	0xbe39d8ef	-0.1814916
195	0x3e2d8e7f	0.16948889
196	0xbda8ebcf	-0.08248102
197	0x3e0ba625	0.13637598
198	0xbdee13de	-0.11624883
199	0xbd4e4498	-0.050358385
200	0x3df7b281	0.12094594
201	0x3ddddbbf	0.10832929
202	0x3e3d25b6	0.18471417
203	0x3d654bd0	0.055980504
204	0xbb93bdfe	-0.004508733
205	0xbdd899c3	-0.10576203
206	0x3e26325b	0.16230147
207	0xbe6e7963	-0.23288493
208	0xbd5c3912	-0.053765364
209	0xbe1cb8b9	-0.15304841
210	0xbdeca75b	-0.11555358
211	0x3e4f1325	0.20222147
212	0xbea1ea25	-0.3162395
213	0x3d110875	0.035408456
214	0xbe02ffe4	-0.12792927
215	0x3e1649e2	0.14676622
216	0x3b2891fe	0.0025721784
217	0xbe5fd9af	-0.21860383
218	0xbdf6d5e3	-0.120525144
219	0x3e5605c0	0.20900631
220	0x3de776cb	0.11301955
221	0x3e218507	0.15773402
222	0x3d1a5052	0.037674256
223	0xbe7dd673	-0.24788837
224	0xbd8bfd08	-0.06835371
225	0xbd8cf4d5	-0.068826355
226	0x3de03451	0.109474786
227	0xbd9db768	-0.077009976
228	0xbe6396a6	-0.22225437
229	0xbe219d97	-0.15782772
230	0x3c0a6691	0.008447305
231	0xbcbd9b67	-0.02314539
232	0x3df0e4f6	0.11762421
233	0x3d82f54c	0.06394443
234	0xbdda77e1	-0.10667396
235	0x3b622fdc	0.003451339
236	0x3d15d6a1	0.03658164
237	0x3e53c15c	0.2067923
238	0x3d6a2b49	0.057170186
239	0x3e5bcdda	0.21465245
240	0x3c9073c2	0.017633323
241	0x3d03b3fc	0.03215407
242	0xbe5b6d10	-0.21428323
243	0xbdd314cb	-0.103067
244	0xbe0d2065	-0.13781889
245	0xbd5399b4	-0.051660255
246	0xbca8ecd9	-0.02062075
247	0xbcf1e517	-0.029528184
248	0x3a3ec897	0.0007277815
249	0xbdfdaf9c	-0.123870105
250	0xbe32f6ab	-0.17476909
251	0xbbdccd9c	-0.0067383777
252	0x3e1aef2d	0.15130301
253	0xbd91c19c	-0.07117006
254	0x3d1dd715	0.038535196
255	0x3da171a5	0.07883004

layers.0.bias f4 [128]
0	0x3d4b0396	0.049563967
1	0x3bfac030	0.007652305
2	0xbcd01987	-0.025402797
3	0xbc5ca508	-0.013467081
4	0xbbd82831	-0.006596588
5	0xbb823d7b	-0.003974614
6	0xbc5be2f9	-0.013420814
7	0xbe11a6d8	-0.14223802
8	0x3d8d3767	0.06895333
9	0x3e04f2e6	0.12983283
10	0x3bfdf334	0.0077499393
11	0x3c00b76e	0.007856233
12	0x3c000c80	0.00781548
13	0x3db948d7	0.09047096
14	0xbc8c8572	-0.017153475
15	0xbcfd57d9	-0.030925678
16	0x3bfdac5e	0.007741495
17	0xbb516086	-0.0031948402
18	0x3e0879b5	0.13327678
19	0x3a22b590	0.00062068645
20	0x3cbb4692	0.022860799
21	0x3bfeeee1	0.0077799414
22	0x3d367ac7	0.044550683
23	0xbb0cac7a	-0.0021465109
24	0x3e50b510	0.2038157
25	0xbd2729c1	-0.040811304
26	0xbd5d74f0	-0.0540666
27	0xbdc3177c	-0.09525964
28	0x3cf5051c	0.029909663
29	0xbc96e3f0	-0.018419236
30	0xbcec6064	-0.028854556
31	0x3c845f03	0.016158586
32	0x3da47045	0.08029226
33	0xbac08dcd	-0.0014690697
34	0x3c0590ec	0.008152228
35	0xbcc15974	-0.023602225
36	0xbb16faee	-0.002303775
37	0xbccc459c	-0.024935536
38	0x39befc6d	0.00036427696
39	0xbac06bf9	-0.0014680616
40	0x3e4df286	0.20112047
41	0x3c158a7d	0.009127256
42	0x3c6e1e82	0.014533641
43	0x3dbdafe4	0.09262064
44	0x3d3cb153	0.046067547
45	0x3cb6907a	0.022285689
46	0xbd48abb2	-0.048991866
47	0x3e19a55c	0.15004486
48	0xba874806	-0.0010321147
49	0xbc9b6c72	-0.01897261
50	0x3c2465cd	0.010034037
51	0x3dabee10	0.08395016
52	0x3db46a12	0.08809294
53	0x3eaad12f	0.3336272
54	0xbb496168	-0.0030728225
55	0x3bcf3ae7	0.0063241604
56	0xbd03676f	-0.032081064
57	0xbbd9b1d0	-0.0066435114
58	0xbe8e6b87	-0.27816412
59	0xbc589f12	-0.013221519
60	0xbc56aa58	-0.013102137
61	0x3e22d5b3	0.15901832
62	0x3d564b46	0.05231788
63	0x3d354bdd	0.044261802
64	0x3e40e449	0.18837084
65	0x3d348b0a	0.04407791
66	0xbc0064d3	-0.007836538
67	0x3d7e9eb8	0.062163085
68	0xbc6cfe39	-0.014464908
69	0x3bf6f8f0	0.007537
70	0x3d9ef2d1	0.07761157
71	0x3d1b5763	0.037925135
72	0x3c84cae6	0.01621003
73	0x3e845a0c	0.2584995
74	0x3db0468d	0.086072065
75	0x3f9f03c4	1.2423024
76	0xbcba8290	-0.022767335
77	0x3da23378	0.07919973
78	0xbb2d570e	-0.0026449594
79	0xbd09e4c1	-0.033665422
80	0x3d8729cb	0.06599768
81	0xbde070c7	-0.109590106
82	0x3d6dea86	0.058084987
83	0x3da9f92e	0.082994804
84	0xbc75e764	-0.015008781
85	0x3c0763cb	0.008263539
86	0x3d0a5655	0.03377374
87	0xbd359597	-0.044332113
88	0xbcf5a915	-0.029987851
89	0xbd841347	-0.06448989
90	0x3d52358c	0.051320598
91	0x3c04c30c	0.008103143
92	0x3d72eea0	0.0593096
93	0x3e461cc6	0.19346914
94	0x3ca3ab6e	0.019979205
95	0xbcbdccab	-0.023168882
96	0xbba53b5f	-0.005042478
97	0xbd156a8a	-0.036478557
98	0x3d90d4cb	0.07071837
99	0x3e817a0e	0.25288433
100	0xbdde20b5	-0.10846082
101	0xbcaaaae4	-0.02083344
102	0x3ece3314	0.40273345
103	0x3d707ece	0.05871468
104	0xb99eb474	-0.00030270556
105	0x3cbbfb3b	0.022946944
106	0x3d5664e7	0.05234232
107	0x3dc78641	0.09742404
108	0xbc9ef909	-0.019405859
109	0x3b9ead11	0.0048424085
110	0x3cb3bcb1	0.021940561
111	0x3d25b23a	0.040453173
112	0x3c0212dd	0.007939068
113	0x3d663c14	0.05620964
114	0xbb6ddb26	-0.0036293953
115	0xbca97af0	-0.020688504
116	0xbd02e56d	-0.03195708
117	0xba8939ee	-0.0010469535
118	0xbbf49d31	-0.0074650277
119	0x3ccc297c	0.024922125
120	0xbcad7d85	-0.021178016
121	0xbb139d8f	-0.0022524332
122	0x3e67876d	0.22610255
123	0x3be50cd7	0.006990056
124	0x3c0fde8d	0.008781088
125	0xbae7cc48	-0.0017684782
126	0x3d3f5209	0.046709094
127	0x3d82b4b9	0.06382126

layers.1.weight f4 [128, 128]
0	0xbdebfa8f	-0.115224
1	0x3bdba067	0.006702471
2	0x3dac3047	0.08407646
3	0x3ab8f113	0.0014109932
4	0x3dc75bc9	0.097343035
5	0xbd096a89	-0.033548865
6	0x3daf6acc	0.08565292
7	0x3d6bd134	0.05757256
8	0x3d0f35a2	0.034963258
9	0x3e10965a	0.14119855
10	0xbdfa4870	-0.122208476
11	0xbca6cc31	-0.020361038
12	0xbe02b463	-0.12764125
13	0xbd3f1bd6	-0.046657406
14	0xbddf3923	-0.1089957
15	0xbd75b4d0	-0.05998689
16	0x3cde8bae	0.027166214
17	0x3e1295e4	0.14314991
18	0xbde2a9d5	-0.11067549
19	0xbdb80850	-0.089859605
20	0x3e0f85bb	0.14015858
21	0x3db87454	0.09006563
22	0xbe0f76dc	-0.14010185
23	0xbbb53a1f	-0.00553061
24	0x3d7ab698	0.06120929
25	0x3da47cc4	0.0803161
26	0x3e1303cb	0.14356916
27	0x3c7ab286	0.015301352
28	0xbe1d4520	-0.153584
29	0xbd84d8cc	-0.06486663
30	0x3e0fa195	0.14026482
31	0x3c6c5479	0.014424437
32	0xbe1cf097	-0.15326153
33	0x3e0cb39c	0.1374039
34	0xbd6e61d6	-0.058198772
35	0x3e0c687d	0.13711734
36	0xba0fa25c	-0.00054792105
37	0x3e0324ab	0.12806956
38	0x3c03a33c	0.008034524
39	0x3bc7b0c8	0.006094072
40	0xbe2fe1fb	-0.17176048
41	0x3dadf65d	0.08494256
42	0x3d7eaf8a	0.062179126
43	0x3db345ae	0.08753525
44	0xbdbf9373	-0.093542956
45	0xbdd11d35	-0.10210649
46	0xbd839f35	-0.06426851
47	0xbdebd7e0	-0.11515784
48	0x3dd7b96c	0.10533413
49	0x3da00e52	0.078152314
50	0xbdcca81b	-0.09993001
51	0x3b807c76	0.003921087
52	0xbde59f83	-0.11212065
53	0x3dcd0912	0.10011496
54	0xbe007ef2	-0.12548426
55	0xbd7bdaee	-0.061488084
56	0x3d8d60d1	0.06903232
57	0x3d61ed64	0.055158034
58	0xbe10c3b8	-0.14137161
59	0xbdc6b7dc	-0.09703037
60	0x3dd7d39e	0.1053841
61	0x3ca05a64	0.019574352
62	0xbdd31df2	-0.10308446
63	0xbdf20237	-0.11816829
64	0xbe0eaa64	-0.13932186
65	0xbe1d76c9	-0.15377344
66	0x3d9923ae	0.074775085
67	0xbe2edaa1	-0.17075588
68	0x3e0173e2	0.12641862
69	0x3d9707af	0.073745124
70	0xbe11a413	-0.14222746
71	0x3df681f4	0.12036505
72	0x3b0450d5	0.0020189781
73	0x3dac6219	0.08417148
74	0xbd798775	-0.060920198
75	0x3da1bf6a	0.078978375
76	0x3d81398c	0.06309804
77	0xbe15a21f	-0.14612626
78	0xbe1f0219	-0.15528144
79	0xbdfac5ac	-0.12244734
80	0xbc6e72bb	-0.014553721
81	0xbdb5cfc4	-0.08877519
82	0xbdff7e9e	-0.12475322
83	0x3ce9891d	0.028507764
84	0xbb5209de	-0.0032049338
85	0xbbd01a4d	-0.0063507915
86	0x3d3ef092	0.046616144
87	0x3e06b956	0.13156638
88	0xbcdbd37c	-0.026834242
89	0x3cb4bf3d	0.022063846
90	0xbdc35ee3	-0.095395826
91	0xbd85713a	-0.06515737
92	0xbd05db71	-0.03267998
93	0xbc77a4fd	-0.01511502
94	0xbdafa8d9	-0.08577127
95	0xbe1ed3dd	-0.15510507
96	0xbe1ee293	-0.15516119
97	0x3e0981c0	0.13428402
98	0x3dd0193c	0.10161063
99	0xbdb32c4b	-0.087486826
100	0x3ccdb9fe	0.025113102
101	0xbdd53ab8	-0.1041159
102	0x3dddb28f	0.10825073
103	0x3d988bde	0.074485525
104	0x3e0bb652	0.13643768
105	0x3ddae4de	0.10688184
106	0x3d85d2d8	0.06534356
107	0x3dacbbf0	0.08434284
108	0x3d92d99b	0.07170411
109	0x3c1797b7	0.00925248
110	0x3d68ee0b	0.05686764
111	0x3db38593	0.08765712
112	0x3d1c50fe	0.038163178
113	0xbda34971	-0.07972992
114	0x3dfb42c2	0.122685924
115	0x3c4ad2ae	0.0123793315
116	0x3d218b5e	0.03943955
117	0x3caa9b71	0.020826073
118	0xbe1dd8f4	-0.15414792
119	0xbdf6504c	-0.12027034
120	0x3cda5658	0.0266525
121	0x3d802d73	0.06258669
122	0xbe07bbd9	-0.13255252
123	0xbc06b056	-0.008220753
124	0xbd4df984	-0.050286785
125	0x3c77084b	0.015077661
126	0xbd45e870	-0.048317373
127	0x3c4d3969	0.012525895
128	0xbe247bb4	-0.16062814
129	0xbe188f30	-0.14898372
130	0xbdb0b950	-0.086290956
131	0xbd8241ba	-0.063601926
132	0x3dcc6ab1	0.09981287
133	0xbd0a5b2a	-0.033778347
134	0x3d7ffe9b	0.06249867
135	0xbdee6072	-0.11639489
136	0xbdd21f38	-0.10259861
137	0x3cea4383	0.028596645
138	0xbc8e6559	-0.01738231
139	0xbd953a52	-0.07286514
140	0x3d8c2c4f	0.06844389
141	0x3c5eece7	0.013606287
142	0xbca69554	-0.020334877
143	0x3dba4d7b	0.090968095
144	0xbc8b1bfc	-0.016981117
145	0xbd262401	-0.04056168
146	0xbc660d4e	-0.014041258
147	0x3e156fd3	0.14593439
148	0xbe22ae88	-0.15886891
149	0xbd291139	-0.04127619
150	0xbc90fc70	-0.017698497
151	0xbd3d2ae9	-0.0461835
152	0xbdbbd7a6	-0.09171991
153	0xbd69be88	-0.05706647
154	0xbcb83087	-0.022484077
155	0xbe1ccfd9	-0.15313663
156	0xbd5c767c	-0.053823933
157	0x3dfd9f59	0.12383909
158	0x3d806309	0.062688895
159	0xbe239a97	-0.1597694
160	0x3d6c48ae	0.0576865
161	0xbd4aff70	-0.04956001
162	0xbd019bee	-0.031642847
163	0x3d0e457e	0.03473424
164	0x3dfa2b28	0.12215263
165	0xbd28884b	-0.041145604
166	0xbdb17361	-0.08664585
167	0xbdbcc0e0	-0.092164755
168	0x3d6fe4e2	0.05856789
169	0x3d2c18b6	0.042015754
170	0x3e071da8	0.13194907
171	0x3d2deffe	0.042465203
172	0xbc16a6e9	-0.009195068
173	0x3de4dc61	0.111748464
174	0xbd27fc86	-0.04101231
175	0xbdff9871	-0.12480248
176	0xbd847bbe	-0.064689144
177	0x3da0f254	0.078587204
178	0x3e15cf49	0.14629854
179	0xbab326c9	-0.0013668175
180	0x3d2f9e97	0.042875852
181	0x3dae0549	0.08497102
182	0x3c300877	0.010744206
183	0xbe021951	-0.1270497
184	0x3d3c3b1d	0.045954812
185	0x3d940bdd	0.07228825
186	0x3db2faff	0.0873928
187	0x3daa9a5e	0.083302245
188	0x3de28c99	0.11061973
189	0xbd9de925	-0.077104844
190	0xbe1ece32	-0.15508345
191	0xbd764912	-0.06012828
192	0x3d85eefe	0.06539725
193	0xbe15f80d	-0.14645405
194	0x3de31438	0.11087841
195	0xbd2ceb45	-0.042216558
196	0x3d81e98d	0.063433744
197	0xbd35d65f	-0.044393893
198	0xbd3702db	-0.044680458
199	0xbd1622aa	-0.036654152
200	0x3ddedb9d	0.10881732
201	0x3d15b9a3	0.03655399
202	0x3dc10c40	0.094261646
203	0x3d12deda	0.03585706
204	0xbd841ecb	-0.06451186
205	0x3db910bd	0.09036396
206	0xbbe570c7	-0.0070019695
207	0x3c53b0c7	0.012920565
208	0xbd572b6b	-0.05253164
209	0x3c8f6cef	0.017507998
210	0x3e03551e	0.12825438
211	0xbd84dc07	-0.064872794
212	0xbd7ecc93	-0.062206816
213	0xbd00d1cf	-0.03145009
214	0x3c980f72	0.018562052
215	0xbd8c38eb	-0.06846794
216	0x3d075fda	0.033050396
217	0x3dae8bf3	0.08522787
218	0xbd0ad524	-0.033894673
219	0xbdcb6f99	-0.09933395
220	0xbe1b37d2	-0.15158013
221	0xbba520af	-0.0050392966
222	0xbae6ece4	-0.0017618206
223	0xbd9546c8	-0.07288891
224	0xbd92b473	-0.07163324
225	0x3e0e81ed	0.1391675
226	0x3cd921b3	0.026505327
227	0xbde888d3	-0.11354222
228	0xbda33f3a	-0.07971044
229	0xbd759da1	-0.05996478
230	0xbe1a6571	-0.1507776
231	0x3de191df	0.11014151
232	0x3dc0e71f	0.09419083
233	0xbc9c3a02	-0.019070629
234	0x3d59c108	0.053162605
235	0x3d927165	0.071505345
236	0x3dc553dc	0.096351355
237	0xbd9d010c	-0.07666215
238	0xbe1a09fe	-0.15042874
239	0x3e046679	0.12929715
240	0xbd6ef7be	-0.058341734
241	0x3d6e8488	0.05823186
242	0x3d901c72	0.070366755
243	0x3d979a4d	0.074024774
244	0x3c0c8f2a	0.008579055
245	0xbdc6ffcd	-0.09716759
246	0xbd676945	-0.056496877
247	0xbd0db62f	-0.034597572
248	0x3c4d2eb0	0.012523338
249	0x3d91419a	0.07092591
250	0xbe0025a4	-0.12514359
251	0x3e1b2e2a	0.15154329
252	0xbdcace53	-0.099026345
253	0xbde7e7ce	-0.1132351
254	0xbd2bb322	-0.04191888
255	0xbdf6139b	-0.12015458

layers.1.bias f4 [128]
0	0xbb94eac7	-0.004544589
1	0xbc24c334	-0.010056306
2	0x3a5ecdb2	0.0008499279
3	0x3c9de9dd	0.019276554
4	0xbbb9a180	-0.0056650043
5	0x00000000	0.0
6	0xbc564222	-0.013077291
7	0xbba24ded	-0.004953137
8	0xbc03ff3f	-0.008056461
9	0xbc99f5ca	-0.01879396
10	0x3cb81130	0.022469133
11	0x3cd7bd5c	0.02633541
12	0xbcca90a5	-0.024727175
13	0x3e36511a	0.17804375
14	0x3c673334	0.014111329
15	0xbc82a284	-0.015946634
16	0xbc9eb92e	-0.01937541
17	0x3c9e9c7f	0.019361733
18	0x3cde25cb	0.02711763
19	0x3ecca645	0.39970604
20	0x3ce4c77f	0.027927158
21	0xbc9b37f9	-0.018947588
22	0xbc56ee77	-0.013118378
23	0xbbc5a2f8	-0.0060313903
24	0x3ce55137	0.027992828
25	0x3dd57fab	0.10424741
26	0x3ca1936c	0.019723617
27	0x3dbb2256	0.091374084
28	0xbc51b2d3	-0.012798983
29	0xbcbe32d9	-0.023217605
30	0xbc31333e	-0.01081544
31	0xbdf21538	-0.118204534
32	0xbc9beea5	-0.019034693
33	0xbc99ffb3	-0.018798685
34	0x3cc3448a	0.023836393
35	0x3c25f5f6	0.010129442
36	0xbc775ae7	-0.015097356
37	0xbc8039cc	-0.01565256
38	0xbc117d1f	-0.008879929
39	0xbbc4c9d3	-0.0060055046
40	0x3c3523f6	0.011055937
41	0x00000000	0.0
42	0x3cd27cf7	0.025694354
43	0xbc8ddd52	-0.017317448
44	0xbc7dad21	-0.015483172
45	0x3cd9edbc	0.026602618
46	0x3cd10beb	0.025518378
47	0x3cc24670	0.023715228
48	0xbc9f90e3	-0.019478267
49	0xbbd29862	-0.006426857
50	0x3c774f4e	0.015094591
51	0x3ccb8466	0.024843406
52	0x3e573e5c	0.21019882
53	0xbcb06d53	-0.021536505
54	0xbc088943	-0.008333507
55	0xbc314b42	-0.0108211655
56	0xbc59977a	-0.013280744
57	0xbc3eaa14	-0.0116372295
58	0x3cadef4d	0.021232272
59	0x3c977631	0.018488975
60	0x3cd38d4a	0.025824208
61	0xbc9db933	-0.019253349
62	0xbc456ef8	-0.012050383
63	0x3ddee003	0.108825706
64	0x00000000	0.0
65	0x3cf7f07d	0.030266041
66	0xbc9295c5	-0.017893681
67	0xbc0ad506	-0.00847364
68	0xbc357f21	-0.011077673
69	0xbc47c49f	-0.012192874
70	0x3c414698	0.011796616
71	0xbca40d6f	-0.020025937
72	0xbc599bc7	-0.013281769
73	0x3cd26012	0.025680576
74	0xbc8c7381	-0.01714492
75	0xbc8975f8	-0.016779885
76	0xbc4d6070	-0.0125351995
77	0x3cd37e76	0.025817137
78	0xbc1cd234	-0.009571601
79	0xbc1bc0c7	-0.009506411
80	0x3cdc7e8b	0.02691581
81	0x3cca7909	0.024715917
82	0xbc54fb02	-0.012999298
83	0xbc69260c	-0.0142302625
84	0xbcb9787d	-0.022640461
85	0x3e13e83b	0.14444058
86	0x3c9c9b71	0.019117089
87	0xbc8900f8	-0.016724095
88	0xbc868448	-0.016420498
89	0xbd2ded19	-0.042462442
90	0x3e4b1ae6	0.1983448
91	0x3b7d24bf	0.0038626639
92	0x3ccd9427	0.025095059
93	0xbc6963e0	-0.014245003
94	0xbd8f18ae	-0.06987129
95	0xbcaa2f13	-0.0207744
96	0x00000000	0.0
97	0xbc8e0f32	-0.01734123
98	0x3bb05fc4	0.00538251
99	0xbc6566fa	-0.014001602
100	0x3ce8a930	0.028400987
101	0xbc4b045d	-0.012391177
102	0xbc729398	-0.014805697
103	0xbc2129d1	-0.00983663
104	0xbc993e23	-0.018706387
105	0x3dfc1d10	0.12310231
106	0x3cbf0402	0.02331734
107	0x3cd056dc	0.025432043
108	0xbc37b82d	-0.0112133445
109	0x3c404e89	0.011737474
110	0x3c4707b9	0.012147837
111	0xbc490b66	-0.012270784
112	0xbba88941	-0.005143315
113	0xbc46fc15	-0.012145062
114	0xbc40f6c1	-0.011777581
115	0xbc5cb31b	-0.013470436
116	0xbc6e6e95	-0.014552732
117	0xbc911c89	-0.017713802
118	0x3ca5dc89	0.02024676
119	0x3e81fb85	0.25387207
120	0x3e3407e0	0.17581129
121	0x3cdf5509	0.027262228
122	0x3cdda2bc	0.027055137
123	0xbc933201	-0.01796818
124	0xbc1e7c11	-0.009673134
125	0xbc02ed9f	-0.007991224
126	0xbbc4c90b	-0.0060054115
127	0x3e143cb5	0.14476283

layers.2.weight f4 [1, 128]
0	0x3e47e1c9	0.19519724
1	0x3e4ab319	0.19794883
2	0xbe07070e	-0.13186285
3	0xbd3b0e60	-0.045668006
4	0x3dae1392	0.084998265
5	0x3dc3a124	0.095522195
6	0x3e2d7b0e	0.16941473
7	0x3c13ba95	0.009016653
8	0x3e07692f	0.13223718
9	0x3e1e001d	0.1542973
10	0xbe46d75c	-0.1941809
11	0xbe0e6e7a	-0.13909331
12	0x3e2f5084	0.17120558
13	0xbe98f234	-0.29872286
14	0xbdf42ec8	-0.11922985
15	0x3e4b0c00	0.19828796
16	0x3ddaf2e5	0.1069086
17	0xbe01b171	-0.12665345
18	0xbe154514	-0.14577132
19	0xbf8a0d46	-1.0785301
20	0xbe414a34	-0.18875962
21	0x3d8b8713	0.06812873
22	0x3e4177cb	0.18893354
23	0x3d849ec7	0.06475597
24	0xbdf0cd7b	-0.11757942
25	0xbdb3b6e6	-0.087751195
26	0xbdd465fc	-0.103710145
27	0xbe55e4a8	-0.20888007
28	0x3e16d364	0.14729077
29	0x3e164aa3	0.14676909
30	0x3ddeb4f6	0.10874359
31	0xbf255df0	-0.6459646
32	0x3e6480e3	0.22314791
33	0x3c56dab6	0.013113668
34	0xbe09ac00	-0.13444519
35	0xbeac9c2e	-0.33712906
36	0x3e2859e8	0.16440547
37	0x3e089f5d	0.13342042
38	0x3e0eb1fd	0.13935085
39	0x3e03bd9a	0.12865296
40	0xbe52e2f1	-0.20594384
41	0x3de23451	0.11045135
42	0xbd4f15e8	-0.050558
43	0x3e4c308b	0.19940393
44	0x3e1a08d4	0.1504243
45	0xbd861e66	-0.06548767
46	0xbe061a92	-0.13096073
47	0xbe77541c	-0.24153179
48	0x3e0f79d7	0.14011322
49	0x3e39afe0	0.18133497
50	0x3de41c76	0.11138241
51	0xbe8138af	-0.2523856
52	0xbed51bab	-0.4162267
53	0x3c7cabfe	0.0154218655
54	0x3ddee8e5	0.10884265
55	0x3e1b8a2c	0.15189427
56	0x3e0d32c2	0.13788894
57	0x3d7f0eda	0.062270023
58	0xbdaef4a1	-0.08542753
59	0x3f7e6776	0.9937662
60	0xbe753c31	-0.23948742
61	0x3ddc9a4e	0.10771619
62	0x3d2c9703	0.042136203
63	0xbe402e06	-0.18767557
64	0xbe29aef9	-0.16570653
65	0xbe07d110	-0.13263345
66	0x3dcffe40	0.10155916
67	0x3e2a77cf	0.16647266
68	0x3e15bb3a	0.14622203
69	0x3e2456d9	0.16048755
70	0xbe439175	-0.19098456
71	0x3ddb9d27	0.10723334
72	0x3c726c6f	0.01479636
73	0xbdd6483c	-0.10462996
74	0x3e1b90a9	0.15191902
75	0x3ce28f7f	0.027656315
76	0x3d55beb0	0.052183807
77	0xbdf57418	-0.11985034
78	0x3db50cab	0.08840307
79	0x3d016008	0.031585723
80	0xbe597427	-0.21235715
81	0xbdc13b44	-0.09435132
82	0x3e353a0f	0.17697929
83	0x3def2f43	0.11678936
84	0x3e31d1d9	0.17365207
85	0xbed03211	-0.40663198
86	0xbe63d2c1	-0.22248365
87	0x3e1ef1a1	0.15521862
88	0x3e153bd5	0.14573605
89	0xbdd1229f	-0.102116816
90	0xbebdbe8a	-0.37059432
91	0xbe46f5c6	-0.19429693
92	0xbe0a0bb2	-0.13481024
93	0x3da3ff54	0.08007684
94	0xbe1f38ee	-0.1554906
95	0x3d3a5dbf	0.04549956
96	0x3de24129	0.110475846
97	0x3e433b69	0.19065632
98	0x3da9a656	0.08283679
99	0x3e1b1111	0.15143229
100	0xbe479694	-0.19491035
101	0x3e07c3f8	0.1325835
102	0x3e314b7f	0.17313956
103	0x3ca03d55	0.019560495
104	0x3ce161b9	0.027512418
105	0xbfa820c5	-1.3135
106	0xbdfddbdc	-0.123954505
107	0xbda03cea	-0.078241184
108	0x3d031094	0.031998232
109	0xbe826880	-0.25470352
110	0xbe360208	-0.17774212
111	0x3d330243	0.04370333
112	0x3daa5a80	0.08318043
113	0x3e1fbed3	0.15600137
114	0x3e21a3f9	0.15785207
115	0x3e1617c4	0.14657503
116	0x3d74cdd1	0.059766594
117	0x3e4c5a08	0.19956219
118	0xbdc392db	-0.09549495
119	0xbe6d2710	-0.23159432
120	0xbef3e15a	-0.47632867
121	0xbe57dd85	-0.21080597
122	0xbe2f16e6	-0.17098579
123	0x3e0a6dac	0.13518399
124	0x3ddb3279	0.10702986
125	0x3c3416f1	0.010991798
126	0x3c6d3067	0.014476872
127	0xbeacb6a0	-0.33733082
