Neural DG/code_Alexi/checkpoints/Gudenov_basis2_last.pt (torch, 71104 bytes, 5 tensors)

layers.0.weight f4 [128, 2]
0.17819789 -0.03800389 -0.08401301 -0.08941534 -0.24997887 0.07637733 -0.15174498 0.19077025
0.07030885 0.031457115 -0.2171806 -0.16309275 0.16076246 -0.16664436 -0.004556629 0.077723004
0.04560672 -0.14241551 -0.20598696 0.10390913 -0.19239114 -0.077328764 -0.20156156 -0.20694137
-0.11554622 -0.058130153 -0.23975597 0.10973319 0.020476222 0.1908715 -0.01485799 0.026456103
-0.15231991 -0.21516055 -0.16928986 -0.008455041 -0.00018134057 -0.036997214 -0.040733863 -0.1921382
0.114202514 0.1907284 -0.08019781 -0.09565207 0.10247776 0.07156006 -0.13095526 -0.18096031
0.00015542656 0.047103226 0.12904306 -0.017947482 -0.033464573 0.15107341 0.05952074 0.16531828
-0.11990291 0.21589594 0.11205876 -0.17288786 0.16017558 0.15358028 0.019869538 0.052072223
0.22043432 -0.16176568 -0.09488759 -0.016731245 -0.09941719 -0.15550196 0.065473184 0.01798916
-0.21087636 -0.14009227 0.18283571 0.13481064 -0.039910175 -0.17266268 -0.08992713 -0.1648543
0.05920199 -0.14633994 0.13306808 -0.12861101 -0.04298953 0.22394769 0.07654471 -0.047590796
-0.23792581 0.06435598 0.22334722 0.097114205 0.107641086 0.105128996 0.11267629 -0.20481344
-0.10529923 -4.3289034e-05 0.1934414 -0.0024084384 -0.18638024 -0.13751045 0.21430793 -0.09142553
0.07709602 -0.013187584 0.19716106 -0.11423741 0.16037925 0.022675075 0.18163687 -0.09728276
0.10660227 0.1804902 -0.04032883 0.09169797 0.06679322 0.078680374 0.12230695 -0.023521608
0.05313244 0.05304824 -0.17317767 -0.012975637 0.07724548 -0.14311314 0.1768831 0.17715494
0.04545544 -0.099641606 0.20683819 -0.16918069 0.15459584 0.13695379 0.119450435 -0.09481142
0.0773341 0.18486986 -0.16836746 -0.12383021 -0.016185742 0.052447256 0.09401347 -0.16324694
-0.13059215 0.23222014 0.050318323 -0.11449083 -0.0069429246 0.10216096 -0.02542388 -0.2840949
0.124901354 -0.1251549 0.05893654 0.016949622 -0.0942783 -0.15878186 0.181743 -0.091872126
-0.059317756 0.115147516 -0.06923458 0.11867024 -0.013886176 0.08268976 -0.017409185 0.059699617
-0.019092318 0.0012190382 -0.047107443 -0.08558106 -0.071361035 0.15107805 -0.11915116 0.20405924
0.05242385 -0.08045075 -0.09432895 0.13922419 0.21175246 0.018241402 -0.13130666 -0.066937976
-0.040291775 0.10898209 -0.3225659 -0.028826857 0.09384503 0.2193478 0.15107916 0.032161787
-0.13928452 0.22585815 -0.18200897 0.16897371 -0.082480535 0.13637619 -0.11625489 -0.050362583
0.12094495 0.10832911 0.184714 0.05598037 -0.0045086686 -0.10576209 0.16278175 -0.23238106
-0.05323825 -0.15330431 -0.11555367 0.20222147 -0.3157445 0.035929754 -0.12792909 0.1467664
0.002151981 -0.21808948 -0.12053097 0.20899995 0.11301952 0.15773408 0.037540223 -0.24738547
-0.068882145 -0.06834307 0.10947487 -0.077009976 -0.2217295 -0.157295 0.008763322 -0.022981944
0.117623724 0.06394424 -0.10614505 0.0029351152 0.036580022 0.20679224 0.057169862 0.21465217
0.017633248 0.032155756 -0.2137379 -0.10257989 -0.13834578 -0.051147424 -0.020169543 -0.029006353
0.00023797217 -0.123711154 -0.17424284 -0.0072477297 0.15130256 -0.07117065 0.038535204 0.07883011
00000000: 8279 363e f8a9 1bbd 030f acbd 641f b7bd
00000010: 76fa 7fbe b86b 9c3d 0963 1bbe 4759 433e
00000020: 16fe 8f3d 2dd9 003d 9764 5ebe c901 27be
00000030: ea9e 243e d2a4 2abe c64f 95bb 3d2d 9f3d
00000040: 1dce 3a3d 5fd5 11be 3fee 52be 4fce d43d
00000050: 2f02 45be 8b5e 9ebd 2766 4ebe 70e8 53be
00000060: 7fa3 ecbd e219 6ebd 9782 75be cbbb e03d
00000070: c0bd a73c d273 433e ed6e 73bc 78ba d83c
00000080: c0f9 1bbe 0c53 5cbe 525a 2dbe 0387 0abc
00000090: 3d26 3eb9 648a 17bd 8dd8 26bd e0bf 44be
000000a0: 02e3 e93d 4e4e 433e c03e a4bd 3ce5 c3bd
000000b0: dcdf d13d 158e 923d 2319 06be a94d 39be
000000c0: 00fa 2239 50ef 403d dd23 043e 9906 93bc
000000d0: 2612 09bd fdb2 1a3e 05cc 733d 3249 293e
000000e0: a88f f5bd d313 5d3e 107f e53d 8409 31be
000000f0: 1105 243e 2644 1d3e 71c5 a23c af49 553d
00000100: 89b9 613e e7a5 25be 6d54 c2bd f70f 89bc
00000110: 3d9b cbbd e83b 1fbe ce16 863d 015e 933c
00000120: f9ef 57be 5974 0fbe 4939 3b3e cd0b 0a3e
00000130: da78 23bd 7cce 30be b72b b8bd 91cf 28be
00000140: c97d 723d 23da 15be 0043 083e 9bb2 03be
00000150: ca15 30bd 8b52 653e 79c3 9c3d 91ee 42bd
00000160: d3a2 73be 11cd 833d 22b5 643e d0e3 c63d
00000170: ee72 dc3d df4d d73d d4c2 e63d 9dba 51be
00000180: 1fa7 d7bd 3f91 35b8 8115 463e e4d6 1dbb
00000190: 76da 3ebe 8acf 0cbe 8a73 5b3e 4f3d bbbd
000001a0: 85e4 9d3d bc10 58bc 97e4 493e 4ef5 e9bd
000001b0: 753a 243e 14c1 b93c 04ff 393e 2f3c c7bd
000001c0: 4a52 da3d 6cd2 383e d82f 25bd 25cc bb3d
000001d0: e2ca 883d 2d23 a13d 117c fa3d 63b0 c0bc
000001e0: 67a1 593d 1c49 593d 7d55 31be c497 54bc
000001f0: e132 9e3d 408c 12be d820 353e 1b68 353e
00000200: 7c2f 3a3d e610 ccbd 64cd 533e b43d 2dbe
00000210: 5f4e 1e3e 9d3d 0c3e 6ea2 f43d 7d2c c2bd
00000220: 5761 9e3d 864e 3d3e 8568 2cbe b19a fdbd
00000230: f697 84bc efd2 563d 228a c03d 352a 27be
00000240: f3b9 05be 1ecb 6d3e 961a 4e3d 2b7a eabd
00000250: 7981 e3bb c439 d13d be45 d0bc e374 91be
00000260: 48cc ff3d 9b28 00be 7167 713d efd9 8a3c
00000270: fb14 c1bd b697 22be d61a 3a3e 7427 bcbd
00000280: 2df7 72bd 76d2 eb3d dcca 8dbd 6209 f33d
00000290: d882 63bc 4059 a93d b59d 8ebc 9687 743d
000002a0: 7e67 9cbc 22c8 9f3a bcf3 40bd 1f45 afbd
000002b0: bc25 92bd 34b4 1a3e 8605 f4bd e8f4 503e
000002c0: 64ba 563d 5dc3 a4bd 892f c1bd c990 0e3e
000002d0: a3d5 583e fe6e 953c 4175 06be c716 89bd
000002e0: fd08 25bd 0132 df3d 5c27 a5be 4d26 ecbc
000002f0: d331 c03d b69c 603e 7fb4 1a3e 14bc 033d
00000300: 9aa0 0ebe 5c47 673e 8f60 3abe 7207 2d3e
00000310: 8eeb a8bd 33a6 0b3e 0b17 eebd ff48 4ebd
00000320: fcb1 f73d a7db dd3d ab25 3d3e ac4b 653d
00000330: 74bd 93bb cb99 d8bd 42b0 263e 4df5 6dbe
00000340: 5a10 5abd cefb 1cbe 67a7 ecbd 2513 4f3e
00000350: 43a9 a1be 142b 133d d8ff 02be ee49 163e
00000360: 4008 0d3b d952 5fbe f1d8 f6bd 1504 563e
00000370: c776 e73d 0b85 213e c7c3 193d 9e52 7dbe
00000380: 1512 8dbd 74f7 8bbd 5c34 e03d 68b7 9dbd
00000390: 0f0d 63be f111 21be 0994 0f3c a144 bcbc
000003a0: b5e4 f03d 33f5 823d 9362 d9bd 105b 403b
000003b0: efd4 153d 58c1 533e f22a 6a3d c7cd 5b3e
000003c0: 9a73 903c c1b5 033d 1cde 5abe 6815 d2bd
000003d0: 84aa 0dbe f67f 51bd 993a a5bc bb9e edbc
000003e0: 2b88 7939 465c fdbd b76c 32be 5d7e edbb
000003f0: 0fef 1a3e ebc1 91bd 17d7 1d3d ae71 a13d

layers.0.bias f4 [128]
0.04956416 0.0071264934 -0.02488035 -0.013462217 -0.0066000195 -0.003919399 -0.012925676 -0.14223443
0.068442106 0.12934887 0.0072298227 0.007320136 0.0072981305 0.089946076 -0.017152058 -0.030930398
0.0072095823 -0.0033839685 0.13327657 0.00010041045 0.02286132 0.0072609885 0.044550683 -0.0027563951
0.20381588 -0.040811256 -0.05406691 -0.095261015 0.029911038 -0.017920032 -0.028855784 0.016159128
0.08029487 -0.0015997809 0.007635621 -0.02360171 -0.0028014514 -0.024936682 2.6742491e-05 -0.0020297114
0.20112197 0.009121227 0.014535568 0.0926231 0.046581786 0.022287946 -0.0489917 0.15005265
-0.001127685 -0.018966345 0.0095280185 0.083949454 0.08809319 0.33362633 -0.0030735848 0.0063183527
-0.032081254 -0.006641873 -0.27816352 -0.01322238 -0.013100507 0.15852031 0.052843586 0.044261537
0.18837218 0.044073388 -0.007841714 0.06216808 -0.014467339 0.0072793113 0.07761163 0.038389947
0.016212773 0.2585009 0.08607227 1.2423029 -0.023331441 0.07919991 -0.002441571 -0.033668928
0.065997906 -0.109582916 0.058085147 0.08299491 -0.015008781 0.007746741 0.033773478 -0.044332337
-0.029520283 -0.0644896 0.051320758 0.0076041645 0.05930996 0.19400519 0.01997963 -0.023168601
-0.0050485963 -0.03699953 0.07071869 0.2528828 -0.10846147 -0.020834211 0.40273345 0.05892694
-0.0009991217 0.02294671 0.052857045 0.097424306 -0.018890701 0.0048459074 0.021942623 0.04065892
0.007421553 0.056209635 -0.0041968552 -0.020379646 -0.031955842 -0.0012120976 -0.007466915 0.02492248
-0.021176279 -0.0029498492 0.22562775 0.0064941174 0.008299802 -0.0021798625 0.04671024 0.06382138
00000000: ca03 4b3d 5c85 e93b e0d1 cbbc a190 5cbc
00000010: fa44 d8bb 4d6e 80bb 37c6 53bc e7a5 11be
00000020: 602b 8c3d 0874 043e 26e8 ec3b c0dd ef3b
00000030: 2825 ef3b a635 b83d 7982 8cbc bf61 fdbc
00000040: 5c3e ec3b 92c5 5dbb a779 083e 7393 d238
00000050: aa47 bb3c 96ed ed3b c77a 363d a3a4 34bb
00000060: 1cb5 503e b429 27bd 4475 5dbd 3518 c3bd
00000070: fe07 f53c 08cd 92bc f762 ecbc 2660 843c
00000080: a371 a43d bdaf d1ba 3b34 fa3b 6058 c1bc
00000090: 8e98 37bb 0348 ccbc 1055 e037 e804 05bb
000000a0: ebf2 4d3e 3371 153c 9726 6e3c 2eb1 bd3d
000000b0: 8bcc 3e3d 3695 b63c 85ab 48bd 67a7 193e
000000c0: d4ce 93ba 4f5f 9bbc 681b 1c3c b1ed ab3d
000000d0: 346a b43d 12d1 aa3e 326e 49bb 2f0a cf3b
000000e0: a267 03bd 12a4 d9bb 736b 8ebe aea2 58bc
000000f0: 82a3 56bc 2653 223e 8472 583d 964b 353d
00000100: a3e4 403e 4c86 343d 887a 00bc f5a3 7e3d
00000110: 6b08 6dbc 4a87 ee3b d9f2 9e3d c73e 1d3d
00000120: a6d0 843c 3b5a 843e a946 b03d c803 9f3f
00000130: 9421 bfbc 9033 a23d c402 20bb 6ee8 09bd
00000140: e929 873d 026d e0bd b1ea 6d3d 3cf9 a93d
00000150: 64e7 75bc 60d8 fd3b 0f56 0a3d d395 35bd
00000160: 85d4 f1bc 2013 84bd b735 523d 5b2c f93b
00000170: 00ef 723d 4ca9 463e 52ac a33c 14cc bdbc
00000180: b26e a5bb d28c 17bd f6d4 903d db79 813e
00000190: 0c21 debd 82ac aabc 1433 ce3e 605d 713d
000001a0: f6f4 82ba bdfa bb3c a180 583d 6586 c73d
000001b0: acc0 9abc 6bca 9e3b 04c1 b33c f889 263d
000001c0: 8030 f33b 133c 663d c685 89bb 37f3 a6bc
000001d0: 21e4 02bd 3fdf 9eba 06ad f4bb 3b2a cc3c
000001e0: e079 adbc 4252 41bb f60a 673e 9bcc d43b
000001f0: e5fb 073c 06dc 0ebb 3d53 3f3d c9b4 823d

layers.1.weight f4 [128, 128]
-0.11471268 0.006343377 0.08357735 0.0009270281 0.09693426 -0.034025036 0.08608408 0.0578583
0.03545847 0.14069739 -0.12267445 -0.020816982 -0.12805957 -0.047161855 -0.10946687 -0.06013729
0.026735041 0.14266568 -0.110347904 -0.0901885 0.13969783 0.08971783 -0.14052826 -0.005977403
0.060740042 0.08028209 0.14311326 0.014875149 -0.15406753 -0.06442448 0.13981195 0.013983035
-0.15275532 0.13696018 -0.058576502 0.13688892 -0.0010230596 0.1276207 0.0077028046 0.005674188
-0.17126045 0.085408516 0.061703775 0.08801109 -0.094054736 -0.102538906 -0.064693384 -0.114650585
0.10486594 0.07781447 -0.10037942 0.00442272 -0.111927986 0.1006304 -0.12588538 -0.061075654
0.068572 0.05468921 -0.141192 -0.097270936 0.10495609 0.019072426 -0.102591716 -0.11861411
-0.1388366 -0.15327147 0.074316256 -0.17026035 0.1259511 0.0732978 -0.14269549 0.120855145
0.0015351116 0.08465218 -0.061393518 0.07911514 0.063482806 -0.14652716 -0.15570463 -0.12240232
-0.015033696 -0.089125134 -0.12522322 0.028037162 -0.0032049338 -0.0065005464 0.046136335 0.13109148
-0.026513282 0.021611344 -0.09536516 -0.06558773 -0.033156015 -0.015627775 -0.08623739 -0.15547363
-0.15564579 0.13380224 0.10112748 -0.08797209 0.024811883 -0.10452572 0.10863329 0.07498909
0.13606717 0.10639843 0.06483077 0.08385251 0.07217902 0.008769374 0.056411892 0.0881436
0.037855636 -0.07924019 0.122208945 0.0123793315 0.039034016 0.020354414 -0.15462153 -0.12073567
0.02630369 0.06210921 -0.13298708 -0.008027582 -0.049934793 0.014591756 -0.047829717 0.012069707
-0.16062814 -0.14898372 -0.086290956 -0.063601926 0.09981287 -0.033778347 0.06249867 -0.11639489
-0.10259861 0.028596645 -0.01738231 -0.07286514 0.06844389 0.013606287 -0.020334877 0.090968095
-0.016981117 -0.04056168 -0.014041258 0.14593439 -0.15886891 -0.04127619 -0.017698497 -0.0461835
-0.09171991 -0.05706647 -0.022484077 -0.15313663 -0.053823933 0.12383909 0.062688895 -0.1597694
0.0576865 -0.04956001 -0.031642847 0.03473424 0.12215263 -0.041145604 -0.08664585 -0.092164755
0.05856789 0.042015754 0.13194907 0.042465203 -0.009195068 0.111748464 -0.04101231 -0.12480248
-0.064689144 0.078587204 0.14629854 -0.0013668175 0.042875852 0.08497102 0.010744206 -0.1270497
0.045954812 0.07228825 0.0873928 0.083302245 0.11061973 -0.077104844 -0.15508345 -0.06012828
0.06539725 -0.14645405 0.11087841 -0.042216558 0.063433744 -0.044393893 -0.044680458 -0.036654152
0.10881732 0.03655399 0.094261646 0.03585706 -0.06451186 0.09036396 -0.0070019695 0.012920565
-0.05253164 0.017507998 0.12825438 -0.064872794 -0.062206816 -0.03145009 0.018562052 -0.06846794
0.033050396 0.08522787 -0.033894673 -0.09933395 -0.15158013 -0.0050392966 -0.0017618206 -0.07288891
-0.07163324 0.1391675 0.026505327 -0.11354222 -0.07971044 -0.05996478 -0.1507776 0.11014151
0.09419083 -0.019070629 0.053162605 0.071505345 0.096351355 -0.07666215 -0.15042874 0.12929715
-0.058341734 0.05823186 0.070366755 0.074024774 0.008579055 -0.09716759 -0.056496877 -0.034597572
0.012523338 0.07092591 -0.12514359 0.15154329 -0.099026345 -0.1132351 -0.04191888 -0.12015458
00000000: 7bee eabd 1adc cf3b 9a2a ab3d cd03 733a
00000010: 7885 c63d d65d 0bbd da4c b03d d3fc 6c3d
00000020: e73c 113d fa12 103e be3c fbbd 6088 aabc
00000030: 0c22 03be ca2c 41bd 2b30 e0bd 8552 76bd
00000040: 7203 db3c f416 123e 15fe e1bd c0b4 b8bd
00000050: f30c 0f3e fbbd b73d a4e6 0fbe 17de c3bb
00000060: 8dca 783d f06a a43d 488c 123e e6b6 733c
00000070: e1c3 1dbe fbf0 83bd dd2a 0f3e 1a19 653c
00000080: e46b 1cbe 4a3f 0c3e eaed 6fbd 9c2c 0c3e
00000090: 2f18 86ba 00af 023e cf67 fc3b 8aee b93b
000000a0: e65e 2fbe a9ea ae3d 19bd 7c3d 293f b43d
000000b0: c59f c0bd ebff d1bd f77d 84bd edcd eabd
000000c0: f4c3 d63d 315d 9f3d ba93 cdbd 77ec 903b
000000d0: 803a e5bd 5017 ce3d 19e8 00be 772a 7abd
000000e0: 7a6f 8c3d cb01 603d a394 10be fc35 c7bd
000000f0: 38f3 d63d c73d 9c3c 9b1b d2bd f4eb f2bd
00000100: 2f2b 0ebe 32f3 1cbe 1f33 983d bb58 2ebe
00000110: 53f9 003e 281d 963d c41e 12be e782 f73d
00000120: cc35 c93a 1f5e ad3d c577 7bbd 1e07 a23d
00000130: 4603 823d 370b 16be 0971 1fbe 11ae fabd
00000140: e44f 76bc 3d87 b6bd 843a 00be 31ae e53c
00000150: de09 52bb 8902 d5bb 74f9 3c3d d83c 063e
00000160: 6232 d9bc 460a b13c cf4e c3bd dc52 86bd
00000170: 9ace 07bd d205 80bc 3b9d b0bd 7b34 1fbe
00000180: 9c61 1fbe 7403 093e ed1b cf3d b62a b4bd
00000190: 4a42 cb3c 9511 d6bd 217b de3d e193 993d
000001a0: 3155 0b3e 6ce7 d93d ffc5 843d ddba ab3d
000001b0: 98d2 933d 6cad 0f3c 2810 673d a284 b43d
000001c0: 830e 1b3d ae48 a2bd af48 fa3d aed2 4a3c
000001d0: 22e2 1f3d 4dbe a63c 1b55 1ebe 4344 f7bd
000001e0: d67a d73c 3a66 7e3d c42d 08be 1f86 03bc
000001f0: 6d88 4cbd 4312 6f3c 18e9 43bd 05c0 453c
00000200: b47b 24be 308f 18be 50b9 b0bd ba41 82bd
00000210: b16a cc3d 2a5b 0abd 9bfe 7f3d 7260 eebd
00000220: 381f d2bd 8343 ea3c 5965 8ebc 523a 95bd
00000230: 4f2c 8c3d e7ec 5e3c 5495 a6bc 7b4d ba3d
00000240: fc1b 8bbc 0124 26bd 4e0d 66bc d36f 153e
00000250: 88ae 22be 3911 29bd 70fc 90bc e92a 3dbd
00000260: a6d7 bbbd 88be 69bd 8730 b8bc d9cf 1cbe
00000270: 7c76 5cbd 599f fd3d 0963 803d 979a 23be
00000280: ae48 6c3d 70ff 4abd ee9b 01bd 7e45 0e3d
00000290: 282b fa3d 4b88 28bd 6173 b1bd e0c0 bcbd
000002a0: e2e4 6f3d b618 2c3d a81d 073e feef 2d3d
000002b0: e9a6 16bc 61dc e43d 86fc 27bd 7198 ffbd
000002c0: be7b 84bd 54f2 a03d 49cf 153e c926 b3ba
000002d0: 979e 2f3d 4905 ae3d 7708 303c 5119 02be
000002e0: 1d3b 3c3d dd0b 943d fffa b23d 5e9a aa3d
000002f0: 998c e23d 25e9 9dbd 32ce 1ebe 1249 76bd
00000300: feee 853d 0df8 15be 3814 e33d 45eb 2cbd
00000310: 8de9 813d 5fd6 35bd db02 37bd aa22 16bd
00000320: 9ddb de3d a3b9 153d 400c c13d dade 123d
00000330: cb1e 84bd bd10 b93d c770 e5bb c7b0 533c
00000340: 6b2b 57bd ef6c 8f3c 1e55 033e 07dc 84bd
00000350: 93cc 7ebd cfd1 00bd 720f 983c eb38 8cbd
00000360: da5f 073d f38b ae3d 24d5 0abd 996f cbbd
00000370: d237 1bbe af20 a5bb e4ec e6ba c846 95bd
00000380: 73b4 92bd ed81 0e3e b321 d93c d388 e8bd
00000390: 3a3f a3bd a19d 75bd 7165 1abe df91 e13d
000003a0: 1fe7 c03d 023a 9cbc 08c1 593d 6571 923d
000003b0: dc53 c53d 0c01 9dbd fe09 1abe 7966 043e
000003c0: bef7 6ebd 8884 6e3d 721c 903d 4d9a 973d
000003d0: 2a8f 0c3c cdff c6bd 4569 67bd 2fb6 0dbd
000003e0: b02e 4d3c 9a41 913d a425 00be 2a2e 1b3e
000003f0: 53ce cabd cee7 e7bd 22b3 2bbd 9b13 f6bd

layers.1.bias f4 [128]
-0.005023928 -0.010056306 0.0013508013 0.019275786 -0.005665003 0.0 -0.013077303 -0.004953137
-0.008056461 -0.01879396 0.022470234 0.026335545 -0.0247276 0.1780446 0.014110127 -0.01592534
-0.019545736 0.019361487 0.02711821 0.3997067 0.027927388 -0.018947588 -0.013118378 -0.0060313903
0.02799289 0.1042474 0.019724552 0.091374055 -0.012798983 -0.02303428 -0.01076902 -0.117665514
-0.01923538 -0.018798001 0.023836274 0.010634 -0.015097356 -0.015653636 -0.008879929 -0.0060055046
0.011355594 0.0 0.02569461 -0.017163387 -0.015483172 0.026602574 0.025518486 0.023713598
-0.019403126 -0.006426857 0.015094508 0.024843113 0.21019879 -0.021536505 -0.008333514 -0.0108211655
-0.013207177 -0.011637233 0.021229737 0.01800554 0.025825685 -0.019253349 -0.012398466 0.108825676
0.0 0.030265648 -0.018216057 -0.008744784 -0.011089771 -0.012192874 0.012308027 -0.020025937
-0.01328873 0.02568099 -0.01714492 -0.016773786 -0.012535202 0.025817193 -0.009571608 -0.009845428
0.026915882 0.024713704 -0.012999298 -0.0142302625 -0.022640461 0.14444055 0.019116817 -0.016724095
-0.016420498 -0.04197855 0.19834562 0.0043653417 0.025095208 -0.014247047 -0.06936745 -0.020736787
0.0 -0.016834442 0.004922216 -0.014001602 0.02840096 -0.012391182 -0.014805697 -0.00983663
-0.018211879 0.123566404 0.023314746 0.02543231 -0.0112133445 0.012250005 0.012644422 -0.012616393
-0.005143315 -0.012145067 -0.011777581 -0.013470436 -0.014552732 -0.017713802 0.02024768 0.25387207
0.17581126 0.027262304 0.027056212 -0.01796818 -0.009673134 -0.007991224 -0.0060054115 0.14476329
00000000: c39f a4bb 34c3 24bc 5f0d b13a 41e8 9d3c
00000010: 7da1 b9bb 0000 0000 2f42 56bc ed4d a2bb
00000020: 3fff 03bc caf5 99bc 7f13 b83c a4bd d73c
00000030: 8991 cabc 5351 363e 2a2e 673c dc75 82bc
00000040: 611e a0bc fb9b 9e3c 0227 de3c 5ba6 cc3e
00000050: fac7 e43c f937 9bbc 77ee 56bc f8a2 c5bb
00000060: 5851 e53c a97f d53d 6295 a13c 5222 bb3d
00000070: d3b2 51bc 63b2 bcbc 8b70 30bc 9efa f0bd
00000080: 8493 9dbc 44fe 99bc 4a44 c33c 3b3a 2e3c
00000090: e75a 77bc 0e3c 80bc 1f7d 11bc d3c9 c4bb
000000a0: d00c 3a3c 0000 0000 817d d23c 3b9a 8cbc
000000b0: 21ad 7dbc a4ed d93c 250c d13c 0543 c23c
000000c0: 4ef3 9ebc 6298 d2bb f54e 773c c983 cb3c
000000d0: 5a3e 573e 536d b0bc 4b89 08bc 424b 31bc
000000e0: ea62 58bc 18aa 3ebc fce9 ad3c 5b80 933c
000000f0: 6390 d33c 33b9 9dbc ef22 4bbc ffdf de3d
00000100: 0000 0000 aaef f73c d739 95bc 4846 0fbc
00000110: dfb1 35bc 9fc4 47bc 9ba7 493c 6f0d a4bc
00000120: f9b8 59bc f160 d23c 8173 8cbc 2e69 89bc
00000130: 7360 4dbc 947e d33c 3cd2 1cbc b84e 21bc
00000140: b27e dc3c 6574 ca3c 02fb 54bc 0c26 69bc
00000150: 7d78 b9bc 39e8 133e df9a 9c3c f800 89bc
00000160: 4884 86bc b3f1 2bbd 1d1b 4b3e 240b 8f3b
00000170: 7794 cd3c 726c 69bc 8610 8ebd 32e0 a9bc
00000180: 0000 0000 62e8 89bc 8a4a a13b fa66 65bc
00000190: 21a9 e83c 6204 4bbc 9893 72bc d129 21bc
000001a0: 1431 95bc 6210 fd3d 91fe be3c 6b57 d03c
000001b0: 2db8 37bc 3fb4 483c 8d2a 4f3c fdb4 4ebc
000001c0: 4189 a8bb 1afc 46bc c1f6 40bc 1bb3 5cbc
000001d0: 956e 6ebc 891c 91bc 76de a53c 85fb 813e
000001e0: de07 343e 3255 df3c fda4 dd3c 0132 93bc
000001f0: 117c 1ebc 9fed 02bc 0bc9 c4bb d43c 143e

layers.2.weight f4 [1, 128]
0.19466774 0.19794883 -0.13134673 -0.045669768 0.08499821 0.095522195 0.16941473 0.009016653
0.13223718 0.1542973 -0.19418076 -0.13909325 0.17120712 -0.29872167 -0.119197644 0.19828796
0.10669665 -0.12665673 -0.14577125 -1.0785317 -0.18875958 0.06812873 0.18893354 0.06475597
-0.117579296 -0.08775126 -0.103710026 -0.20888025 0.14729077 0.14677687 0.1082194 -0.64544296
0.22262949 0.013116771 -0.13444515 -0.33663335 0.16440547 0.13342758 0.13935085 0.12865296
-0.20631745 0.11045135 -0.05055788 0.19888155 0.1504243 -0.06548756 -0.13096066 -0.24153168
0.14007433 0.18133497 0.11138823 -0.25276843 -0.41622695 0.0154218655 0.10884262 0.15189427
0.13784227 0.062270034 -0.085427545 0.9932474 -0.23948729 0.10771619 0.04160573 -0.18767576
-0.16570653 -0.13263378 0.10103006 0.16595852 0.14618313 0.16048755 -0.19148366 0.10723334
0.014608946 -0.104629844 0.15191902 0.027663661 0.05218376 -0.11985022 0.088403046 0.03105318
-0.21235706 -0.094351456 0.17697929 0.11678936 0.17365207 -0.4066323 -0.2224846 0.15521862
0.14573605 -0.1016191 -0.37059304 -0.19377892 -0.13481016 0.08007983 -0.15497349 0.04559979
0.110475846 0.19109938 0.08231435 0.15143229 -0.19491029 0.13258348 0.17313956 0.019560495
0.027764857 -1.3140345 -0.12395457 -0.078241065 0.031998232 -0.2541805 -0.17721978 0.043159485
0.08318043 0.15600137 0.15785207 0.14657503 0.059766594 0.19956219 -0.09549513 -0.23159444
-0.47632894 -0.21080594 -0.17098567 0.13518399 0.10702986 0.010991798 0.014476872 -0.3373296
00000000: fb56 473e 19b3 4a3e c27f 06be 3910 3bbd
00000010: 8b13 ae3d 24a1 c33d 0e7b 2d3e 95ba 133c
00000020: 2f69 073e 1d00 1e3e 52d7 46be 766e 0ebe
00000030: eb50 2f3e 0cf2 98be e51d f4bd 000c 4b3e
00000040: c683 da3d 4db2 01be 0f45 15be 540d 8abf
00000050: 314a 41be 1387 8b3d cb77 413e c79e 843d
00000060: 6acd f0bd efb6 b3bd ec65 d4bd b4e4 55be
00000070: 64d3 163e ad4c 163e 22a2 dd3d c03b 25bf
00000080: fcf8 633e bae7 563c fdab 09be 355b acbe
00000090: e859 283e 3da1 083e fdb1 0e3e 9abd 033e
000000a0: e244 53be 5134 e23d c815 4fbd 9ba7 4b3e
000000b0: d408 1a3e 581e 86bd 8d1a 06be 1554 77be
000000c0: a56f 0f3e e0af 393e 831f e43d dd6a 81be
000000d0: b31b d5be feab 7c3c e1e8 de3d 2c8a 1b3e
000000e0: 8626 0d3e dd0e 7f3d a3f4 aebd 7645 7e3f
000000f0: 283c 75be 4e9a dc3d c56a 2a3d 132e 40be
00000100: f9ae 29be 26d1 07be d9e8 ce3d 08f1 293e
00000110: 08b1 153e d956 243e 4b14 44be 279d db3d
00000120: 5c5a 6f3c 2c48 d6bd a990 1b3e e79e e23c
00000130: a3be 553d 0874 f5bd a80c b53d 3d63 fe3c
00000140: 2174 59be 563b c1bd 0f3a 353e 432f ef3d
00000150: d9d1 313e 1c32 d0be 01d3 63be a1f1 1e3e
00000160: d53b 153e ad1d d0bd 5fbe bdbe fb6d 46be
00000170: ad0b 0abe e500 a43d 5fb1 1ebe d8c6 3a3d
00000180: 2941 e23d 8eaf 433e 6d94 a83d 1111 1b3e
00000190: 9096 47be f7c3 073e 7f4b 313e 553d a03c
000001a0: 2073 e33c 4832 a8bf e5db fdbd da3c a0bd
000001b0: 9410 033d f223 82be 1a79 35be 00c8 303d
000001c0: 805a aa3d d3be 1f3e f9a3 213e c417 163e
000001d0: d1cd 743d 085a 4c3e f392 c3bd 1827 6dbe
000001e0: 63e1 f3be 83dd 57be de16 2fbe ac6d 0a3e
000001f0: 7932 db3d f116 343c 6730 6d3c 77b6 acbe
