Neural DG/code_Alexi/checkpoints/Gudenov_basis3_last.pt (torch, 71104 bytes, 5 tensors)

layers.0.weight f4 [128, 2]
000000 92 79 36 3e 89 a9 1b bd 47 09 ad bd e6 27 b8 bd
       0.17819813 -0.03800348 -0.08449035 -0.08991985
000010 3d 76 7f be 62 67 9b 3d d6 5d 1b be b9 5f 43 3e
       -0.24947448 0.07588078 -0.15172514 0.19079484
000020 3d ff 8f 3d 03 db 00 3d de e7 5e be a8 91 26 be
       0.07031105 0.031458866 -0.21768138 -0.16266501
000030 fa 22 24 3e 78 1e 2b be 13 5f 95 bb 8c 2b 9f 3d
       0.16028967 -0.16710842 -0.004558453 0.07771978
000040 62 f3 38 3d 95 49 12 be 8a 71 52 be c7 c3 d3 3d
       0.045153983 -0.14285882 -0.20551124 0.10340076
000050 1f 7e 44 be c2 5b 9f bd 5e f1 4d be ff 65 54 be
       -0.19188736 -0.07781173 -0.20111606 -0.20742033
000060 6f a8 eb bd b2 20 70 bd 99 bc 75 be dd c4 df 3d
       -0.115067355 -0.05862493 -0.23997726 0.109262206
000070 b6 bd a7 3c c6 73 43 3e 97 62 73 bc 02 c3 d8 3c
       0.020476203 0.19087133 -0.014855049 0.026460174
000080 c0 73 1b be f4 d1 5c be 85 db 2d be d0 55 02 bc
       -0.15180874 -0.21564466 -0.16978271 -0.00795503
000090 31 34 3e b9 7a 89 17 bd a6 e6 28 bd fc ef 44 be
       -0.00018139255 -0.036996342 -0.04123559 -0.19232172
0000a0 2b e3 e9 3d 5d 4e 43 3e 7b 39 a5 bd 1b ec c4 bd
       0.11420282 0.19072862 -0.08067604 -0.09615346
0000b0 d1 df d1 3d 0d 8e 92 3d 5c 9c 06 be fc d1 39 be
       0.10247768 0.07156 -0.13145584 -0.18146509
0000c0 81 26 22 39 38 ef 40 3d b5 23 04 3e 56 0b 93 bc
       0.00015463868 0.047103137 0.12904246 -0.017949741
0000d0 d9 11 09 bd 0a b3 1a 3e d7 cd 73 3d 3f 49 29 3e
       -0.033464286 0.1510736 0.059522476 0.16531847
0000e0 c6 8c f5 bd 06 15 5d 3e 54 75 e4 3d de 88 30 be
       -0.11989741 0.21590051 0.11155191 -0.1723971
0000f0 21 05 24 3e 2f 44 1d 3e bc c4 a2 3c f9 48 55 3d
       0.16017582 0.15358041 0.0198692 0.052071545
000100 8f b9 61 3e de a5 25 be 07 5c c3 bd b0 14 85 bc
       0.22043441 -0.16176555 -0.09539037 -0.016245216
000110 77 91 ca bd dc b1 1f be d3 16 86 3d 10 5d 93 3c
       -0.098910265 -0.15595192 0.06547322 0.017988712
000120 65 73 58 be 73 f7 0f be 61 39 3b 3e e1 0b 0a 3e
       -0.2113777 -0.14059238 0.18283607 0.13481094
000130 d2 7a 25 bd b7 53 30 be 7e 36 b9 bd 00 74 28 be
       -0.040400334 -0.17219435 -0.09043597 -0.164505
000140 68 7d 72 3d fa d9 15 be 71 43 08 3e 28 b2 03 be
       0.059201628 -0.14633933 0.13306977 -0.1286093
000150 22 13 30 bd aa 52 65 3e d5 c3 9c 3d cb ec 42 bd
       -0.042986996 0.22394815 0.076545395 -0.047589105
000160 23 25 74 be 90 c5 82 3d 25 b5 64 3e bc e3 c6 3d
       -0.23842292 0.06385338 0.22334726 0.09711406
000170 f9 72 dc 3d bc 4d d7 3d f5 bf e6 3d 85 bc 51 be
       0.10764117 0.105128735 0.11267082 -0.2048207
000180 b2 b0 d8 bd b9 db ec 39 6f 15 46 3e e5 db 1d bb
       -0.10580577 0.00045177134 0.19344114 -0.0024087366
000190 e4 64 3e be bd 5b 0c be a8 73 5b 3e c8 3c bb bd
       -0.18593174 -0.1370687 0.21430838 -0.091424525
0001a0 6d e4 9d 3d 52 12 58 bc 28 e3 49 3e 27 f3 e9 bd
       0.077095844 -0.013187962 0.1971556 -0.11423331
0001b0 87 3a 24 3e 4f c1 b9 3c e2 fe 39 3e 74 3c c7 bd
       0.16037951 0.022675185 0.18163636 -0.097283274
0001c0 7a 52 da 3d 7f d2 38 3e 06 32 25 bd 0e ca bb 3d
       0.106602624 0.18049048 -0.04033091 0.09169398
0001d0 c3 ca 88 3d a9 22 a1 3d e3 7b fa 3d 6a b1 c0 bc
       0.06679299 0.07867939 0.12230661 -0.023522098
0001e0 b7 a1 59 3d bd 47 59 3d e7 d0 30 be 4c bb 5c bc
       0.05313274 0.05304693 -0.1726719 -0.013472389
0001f0 64 a6 9d 3d 4d 12 13 be e3 20 35 3e 27 68 35 3e
       0.07697752 -0.1436245 0.17688327 0.17715512
000200 e1 2d 3a 3d 3f 11 cc bd 3e cd 53 3e dc 3d 2d be
       0.04545391 -0.09964227 0.20683762 -0.16918129
000210 56 4e 1e 3e 97 3d 0c 3e 61 a1 f4 3d 2f 2c c2 bd
       0.1545957 0.1369537 0.11944843 -0.094810836
000220 29 63 9e 3d a7 4e 3d 3e 4b e6 2b be 1d 8d fc bd
       0.07733757 0.18487035 -0.16787069 -0.12331603
000230 67 98 84 bc ee d2 56 3d 19 c6 c1 3d 49 98 27 be
       -0.016185952 0.052447252 0.09461612 -0.16366686
000240 f6 b9 05 be 11 cb 6d 3e dd 17 4e 3d aa 7a ea bd
       -0.1305922 0.23221995 0.050315727 -0.114491776
000250 8d 82 e3 bb b7 39 d1 3d a2 3c d0 bc d8 74 91 be
       -0.006943053 0.10216086 -0.025419537 -0.28409457
000260 ec 2e ff 3d 0c 74 00 be 55 67 71 3d ad d9 8a 3c
       0.124601215 -0.12544268 0.058936436 0.016949499
000270 b2 17 c0 bd 56 14 22 be 2d 1b 3a 3e cd 26 bc bd
       -0.093795195 -0.1582807 0.18174429 -0.09187088
000280 49 f7 72 bd 6e d2 eb 3d 12 ce 8d bd 04 06 f3 3d
       -0.05931786 0.11514746 -0.069240704 0.11866382
000290 e0 82 63 bc 3d 59 a9 3d dc 9d 8e bc 94 87 74 3d
       -0.0138861835 0.08268974 -0.017409258 0.05969961
0002a0 7e 67 9c bc 22 c8 9f 3a 08 28 3f bd fc 3f b0 bd
       -0.019092318 0.0012190382 -0.046669036 -0.08605954
0002b0 9c 25 92 bd 3f b4 1a 3e e2 04 f4 bd f8 f4 50 3e
       -0.0713608 0.15107821 -0.11914994 0.20405948
0002c0 5d df 58 3d 96 c1 a3 bd a5 2f c1 bd b2 90 0e 3e
       0.05294739 -0.07995908 -0.094329156 0.13922384
0002d0 9f d5 58 3e 7b 6e 95 3c 54 f2 05 be 97 f6 89 bd
       0.2117524 0.018241158 -0.13080722 -0.067364864
0002e0 6e 09 25 bd e5 31 df 3d f4 e4 a4 be c7 3a f0 bc
       -0.040292196 0.108981885 -0.32205927 -0.029324902
0002f0 ff 31 c0 3d cd 9c 60 3e 99 b4 1a 3e 88 bc 03 3d
       0.09384536 0.21934815 0.15107955 0.03216222
000300 97 9d 0e be e2 4a 67 3e 97 de 39 be de 88 2d 3e
       -0.13927303 0.2258716 -0.18151318 0.16946742
000310 c3 eb a8 bd 25 a6 0b 3e 0a 14 ee bd ce 44 4e bd
       -0.08248093 0.13637598 -0.11624916 -0.050358586
000320 71 b2 f7 3d bf db dd 3d b6 25 3d 3e d0 4b 65 3d
       0.12094582 0.10832929 0.18471417 0.055980504
000330 e4 bd 93 bb c3 99 d8 bd bd 36 26 3e 3c 74 6e be
       -0.0045087207 -0.10576203 0.16231818 -0.23286527
000340 9f 21 5c bd d1 b9 1c be 5b a7 ec bd 25 13 4f 3e
       -0.053743 -0.15305258 -0.11555358 0.20222147
000350 91 e7 a1 be 5a 1f 11 3d e4 ff 02 be e2 49 16 3e
       -0.31621984 0.03543029 -0.12792927 0.14676622
000360 c4 41 27 3b 06 d4 5f be 05 d6 f6 bd aa 05 56 3e
       0.0025521377 -0.21858224 -0.1205254 0.20900598
000370 cb 76 e7 3d 07 85 21 3e 1f 4d 1a 3d 05 d1 7d be
       0.11301955 0.15773402 0.037671205 -0.24786766
000380 e4 08 8c bd 86 ea 8c bd 52 34 e0 3d 68 b7 9d bd
       -0.06837633 -0.06880669 0.10947479 -0.077009976
000390 d2 90 63 be d5 97 21 be 4d 60 0a 3c 69 99 bd bc
       -0.22223213 -0.15780576 0.008445811 -0.02314444
0003a0 f2 e4 f0 3d 4c f5 82 3d 05 6c da bd d9 c2 60 3b
       0.11762418 0.06394443 -0.10665134 0.0034295826
0003b0 88 d6 15 3d 5c c1 53 3e 49 2b 6a 3d da cd 5b 3e
       0.036581546 0.2067923 0.057170186 0.21465245
0003c0 cb 73 90 3c 25 b4 03 3d a5 66 5b be 8d 0d d3 bd
       0.01763334 0.03215422 -0.21425875 -0.10305319
0003d0 27 26 0d be ea 82 53 bd e0 c2 a8 bc d4 b5 f1 bc
       -0.13784085 -0.05163852 -0.020600736 -0.029505648
0003e0 85 00 3a 3a 5d ad fd bd bd f0 32 be 8a 80 dd bb
       0.00070954143 -0.12386582 -0.17474647 -0.006759708
0003f0 2d ef 1a 3e 9c c1 91 bd 15 d7 1d 3d a5 71 a1 3d
       0.15130301 -0.07117006 0.038535196 0.07883004

layers.0.bias f4 [128]
000000 ab 03 4b 3d 80 0b fa 3b b9 eb cf bc d5 a3 5c bc
       0.049564045 0.0076307654 -0.025380956 -0.013466795
000010 da 29 d8 bb 1f be 82 bb 61 8b 5b bc c2 a6 11 be
       -0.006596786 -0.0039899494 -0.01339993 -0.1422377
000020 de 2b 8d 3d 10 ee 04 3e a8 3c fd 3b e3 56 00 3c
       0.068931326 0.12981439 0.007728178 0.007833215
000030 67 66 ff 3b bf 3d b9 3d 3a 85 8c bc 9f 57 fd bc
       0.0077941897 0.0904498 -0.017153371 -0.03092557
000040 41 ed fc 3b 6e 5d 52 bb b5 79 08 3e a3 fc 1c 3a
       0.0077187126 -0.0032099145 0.13327678 0.00059885735
000050 b3 46 bb 3c 7b 3c fe 3b bf 7a 36 3d 14 f7 0d bb
       0.02286086 0.0077586747 0.044550654 -0.0021662163
000060 10 b5 50 3e d2 29 27 bd ee 74 5d bd 8e 17 c3 bd
       0.2038157 -0.040811367 -0.05406659 -0.09525977
000070 21 05 f5 3c c3 b7 96 bc 7f 60 ec bc 07 5f 84 3c
       0.029909672 -0.018398171 -0.028854607 0.016158594
000080 5b 70 a4 3d 0e 30 c1 ba c8 36 05 3c 5b 59 c1 bc
       0.080292426 -0.0014739053 0.008130737 -0.023602178
000090 75 d1 17 bb ad 45 cc bc ac 44 ac 39 7d e3 c2 ba
       -0.0023165618 -0.024935568 0.0003285756 -0.0014868822
0000a0 88 f2 4d 3e 14 89 15 3c 3c 1f 6e 3c fa af bd 3d
       0.2011205 0.00912692 0.014533814 0.092620805
0000b0 82 c8 3c 3d c2 90 b6 3c a7 ab 48 bd 72 a5 19 3e
       0.046089657 0.022285823 -0.048991825 0.15004519
0000c0 59 8a 86 ba b3 6b 9b bc 1b 0c 24 3c 11 ee ab 3d
       -0.001026462 -0.018972253 0.010012652 0.08395017
0000d0 12 6a b4 3d 2f d1 aa 3e b0 61 49 bb 60 38 cf 3b
       0.08809294 0.3336272 -0.0030728392 0.006323859
0000e0 64 67 03 bd ee b0 d9 bb 87 6b 8e be 97 9f 58 bc
       -0.032081023 -0.006643406 -0.27816412 -0.013221643
0000f0 df a9 56 bc af cf 22 3e 87 63 56 3d dd 4b 35 3d
       -0.013102024 0.15899538 0.05234101 0.044261802
000100 49 e4 40 3e c8 8a 34 3d 0d 66 00 bc fc 9e 7e 3d
       0.18837084 0.044077665 -0.007836831 0.062163338
000110 a4 fe 6c bc fe 95 f6 3b d1 f2 9e 3d ce 67 1b 3d
       -0.014465008 0.0075252047 0.07761157 0.037940793
000120 42 cb 84 3c 0c 5a 84 3e 8d 46 b0 3d c4 03 9f 3f
       0.016210202 0.2584995 0.086072065 1.2423024
000130 1f b0 ba bc 78 33 a2 3d 6f e9 2b bb ed e4 09 bd
       -0.02278906 0.07919973 -0.0026231667 -0.033665586
000140 cb 29 87 3d 9b 70 e0 bd 85 ea 6d 3d 2e f9 a9 3d
       0.06599768 -0.10958978 0.058084983 0.082994804
000150 64 e7 75 bc 83 07 07 3c 58 56 0a 3d 8e 95 35 bd
       -0.015008781 0.008241537 0.03377375 -0.04433208
000160 36 82 f5 bc 47 13 84 bd 89 35 52 3d ee 69 04 3c
       -0.029969316 -0.06448989 0.051320586 0.008081896
000170 a0 ee 72 3d 6d 22 46 3e 90 ab a3 3c 8c cc bd bc
       0.0593096 0.1934907 0.019979268 -0.023168825
000180 9c 3e a5 bb 87 81 15 bd cb d4 90 3d 0e 7a 81 3e
       -0.005042864 -0.03650048 0.07071837 0.25288433
000190 ba 20 de bd f2 aa aa bc 14 33 ce 3e 9a 7a 70 3d
       -0.10846086 -0.020833466 0.40273345 0.058710672
0001a0 94 cc b2 b9 31 fb bb 3c b4 7b 56 3d 41 86 c7 3d
       -0.00034103228 0.022946926 0.052364066 0.09742404
0001b0 b6 ca 9e bc 29 af 9e 3b ff bc b3 3c 73 bd 25 3d
       -0.01938377 0.004842658 0.021940706 0.040463876
0001c0 c0 b7 01 3c 17 3c 66 3d a9 96 6e bb e3 74 a9 bc
       0.007917345 0.05620965 -0.0036405718 -0.020685619
0001d0 50 e5 02 bd 2d 89 89 ba 06 9e f4 bb 99 29 cc 3c
       -0.03195697 -0.0010493152 -0.007465127 0.024922179
0001e0 37 7d ad bc 38 77 15 bb e8 81 67 3e a8 6c e4 3b
       -0.021177871 -0.0022806656 0.22608149 0.0069709606
0001f0 56 8c 0f 3c 02 35 e8 ba 30 52 3f 3d b9 b4 82 3d
       0.008761486 -0.0017715993 0.04670924 0.06382126

layers.1.weight f4 [128, 128]
000000 ba ee eb bd 62 2a db 3b 47 25 ac 3d 00 5a b6 3a
       -0.11520143 0.006688402 0.084055476 0.001391232
000010 d8 53 c7 3d 44 7f 09 bd c4 74 af 3d 98 e4 6b 3d
       0.09732789 -0.033568636 0.08567193 0.05759105
000020 c9 4b 0f 3d da 90 10 3e 9f 52 fa bd f2 f2 a6 bc
       0.034984384 0.14117756 -0.1222279 -0.020379517
000030 e5 b8 02 be 0f 32 3f bd fe 42 df bd 72 b7 75 bd
       -0.12765844 -0.0466786 -0.109014496 -0.0599894
000040 f0 67 de 3c 80 90 12 3e cd a2 e2 bd 4f 0e b8 bd
       0.02714917 0.14312935 -0.11066208 -0.08987104
000050 04 81 0f 3e 48 6d b8 3d 04 7b 0f be cf d2 b5 bb
       0.1401406 0.09005219 -0.1401177 -0.005548812
000060 ce a2 7a 3d e3 7f a4 3d 1b ff 12 3e f4 70 7a 3c
       0.06119042 0.08032205 0.14355128 0.015285719
000070 48 4a 1d be 9c ce 84 bd ff 9c 0f 3e fe 0b 6c 3c
       -0.15360367 -0.0648472 0.14024733 0.014407156
000080 ee ea 1c be b2 ae 0c 3e e9 70 6e bd ac 67 0c 3e
       -0.15323994 0.13738516 -0.05821315 0.13711423
000090 3c d0 14 ba 29 20 03 3e 75 71 03 3c 64 23 c7 3b
       -0.00056767813 0.12805237 0.008022656 0.006077217
0000a0 76 dc 2f be f5 00 ae 3d 85 9b 7e 3d 5d 50 b3 3d
       -0.17173943 0.08496276 0.062160034 0.087555625
0000b0 dc 9e bf bd 95 25 d1 bd 64 a7 83 bd 99 cc eb bd
       -0.09356472 -0.10212246 -0.064284116 -0.11513633
0000c0 f6 ae d7 3d 3c 09 a0 3d bd b1 cc bd 06 31 81 3b
       0.10531418 0.07814261 -0.099948384 0.0039426116
0000d0 4e 95 e5 bd e6 14 cd 3d ad 82 00 be f5 c7 7b bd
       -0.11210118 0.10013752 -0.12549849 -0.06146999
0000e0 60 57 8d 3d 86 d9 61 3d 24 c1 10 be 23 bb c6 bd
       0.06901431 0.055139087 -0.14136177 -0.09703662
0000f0 15 cb d7 3d 1a 2d a0 3c ee 12 d3 bd 16 0b f2 bd
       0.10536782 0.019552756 -0.10306345 -0.11818521
000100 0d a5 0e be 26 71 1d be 49 1a 99 3d 1f d5 2e be
       -0.1393015 -0.15375194 0.074757166 -0.17073487
000110 04 6f 01 3e 0d fe 96 3d 0f a9 11 be 04 8d f6 3d
       0.12640005 0.07372675 -0.14224647 0.12038615
000120 4c 06 03 3b a4 6c ac 3d 80 9b 79 bd 12 c2 a1 3d
       0.0019992767 0.08419159 -0.060939312 0.07898344
000130 8f 42 81 3d f7 a5 15 be 90 06 1f be 5b c4 fa bd
       0.06311523 -0.14614092 -0.15529847 -0.12244483
000140 d1 c4 6e bc a3 d5 b5 bd 91 88 ff bd 12 61 e9 3c
       -0.014573292 -0.088786386 -0.1247722 0.02848867
000150 de 09 52 bb 71 33 d0 bb 1e dc 3e 3d 53 b4 06 3e
       -0.0032049338 -0.0063537885 0.04659664 0.13154726
000160 92 b5 db bc c6 99 b4 3c 0b 54 c3 bd 8b 7a 85 bd
       -0.026819978 0.022045981 -0.09537514 -0.06517514
000170 b4 ef 05 bd bc 01 78 bc 80 b2 af bd ef d6 1e be
       -0.0326993 -0.015137132 -0.08578968 -0.15511678
000180 c1 e7 1e be 98 7c 09 3e e2 0e d0 3d 94 37 b3 bd
       -0.15518095 0.13426435 0.10159089 -0.08750835
000190 46 ae cd 3c 4e 42 d5 bd d6 ba dd 3d 34 97 98 3d
       0.025107514 -0.10413037 0.10826652 0.07450715
0001a0 9d b2 0b 3e 87 da da 3d 6a c7 85 3d 5b b1 ac 3d
       0.13642354 0.10686212 0.06532176 0.08432265
0001b0 8e e4 92 3d 3b 45 17 3c 78 db 68 3d ae 90 b3 3d
       0.071724996 0.009232814 0.056849927 0.0876783
0001c0 cf 44 1c 3d 8b 3e a3 bd 5e 38 fb 3d ae d2 4a 3c
       0.03815156 -0.079709135 0.122666106 0.0123793315
0001d0 52 7c 21 3d 47 71 aa 3c ec dd 1d be ee 59 f6 bd
       0.0394252 0.020805968 -0.15416688 -0.120288715
0001e0 51 3d da 3c fa 22 80 3d 31 c1 07 be 19 89 06 bc
       0.026640566 0.06256671 -0.1325729 -0.008211398
0001f0 12 e8 4d bd d3 b1 76 3c 98 d2 45 bd e3 ed 4c 3c
       -0.050270148 0.015057045 -0.04829654 0.0125078885
000200 b4 7b 24 be 30 8f 18 be 50 b9 b0 bd ba 41 82 bd
       -0.16062814 -0.14898372 -0.086290956 -0.063601926
000210 b1 6a cc 3d 2a 5b 0a bd 9b fe 7f 3d 72 60 ee bd
       0.09981287 -0.033778347 0.06249867 -0.11639489
000220 38 1f d2 bd 83 43 ea 3c 59 65 8e bc 52 3a 95 bd
       -0.10259861 0.028596645 -0.01738231 -0.07286514
000230 4f 2c 8c 3d e7 ec 5e 3c 54 95 a6 bc 7b 4d ba 3d
       0.06844389 0.013606287 -0.020334877 0.090968095
000240 fc 1b 8b bc 01 24 26 bd 4e 0d 66 bc d3 6f 15 3e
       -0.016981117 -0.04056168 -0.014041258 0.14593439
000250 88 ae 22 be 39 11 29 bd 70 fc 90 bc e9 2a 3d bd
       -0.15886891 -0.04127619 -0.017698497 -0.0461835
000260 a6 d7 bb bd 88 be 69 bd 87 30 b8 bc d9 cf 1c be
       -0.09171991 -0.05706647 -0.022484077 -0.15313663
000270 7c 76 5c bd 59 9f fd 3d 09 63 80 3d 97 9a 23 be
       -0.053823933 0.12383909 0.062688895 -0.1597694
000280 ae 48 6c 3d 70 ff 4a bd ee 9b 01 bd 7e 45 0e 3d
       0.0576865 -0.04956001 -0.031642847 0.03473424
000290 28 2b fa 3d 4b 88 28 bd 61 73 b1 bd e0 c0 bc bd
       0.12215263 -0.041145604 -0.08664585 -0.092164755
0002a0 e2 e4 6f 3d b6 18 2c 3d a8 1d 07 3e fe ef 2d 3d
       0.05856789 0.042015754 0.13194907 0.042465203
0002b0 e9 a6 16 bc 61 dc e4 3d 86 fc 27 bd 71 98 ff bd
       -0.009195068 0.111748464 -0.04101231 -0.12480248
0002c0 be 7b 84 bd 54 f2 a0 3d 49 cf 15 3e c9 26 b3 ba
       -0.064689144 0.078587204 0.14629854 -0.0013668175
0002d0 97 9e 2f 3d 49 05 ae 3d 77 08 30 3c 51 19 02 be
       0.042875852 0.08497102 0.010744206 -0.1270497
0002e0 1d 3b 3c 3d dd 0b 94 3d ff fa b2 3d 5e 9a aa 3d
       0.045954812 0.07228825 0.0873928 0.083302245
0002f0 99 8c e2 3d 25 e9 9d bd 32 ce 1e be 12 49 76 bd
       0.11061973 -0.077104844 -0.15508345 -0.06012828
000300 fe ee 85 3d 0d f8 15 be 38 14 e3 3d 45 eb 2c bd
       0.06539725 -0.14645405 0.11087841 -0.042216558
000310 8d e9 81 3d 5f d6 35 bd db 02 37 bd aa 22 16 bd
       0.063433744 -0.044393893 -0.044680458 -0.036654152
000320 9d db de 3d a3 b9 15 3d 40 0c c1 3d da de 12 3d
       0.10881732 0.03655399 0.094261646 0.03585706
000330 cb 1e 84 bd bd 10 b9 3d c7 70 e5 bb c7 b0 53 3c
       -0.06451186 0.09036396 -0.0070019695 0.012920565
000340 6b 2b 57 bd ef 6c 8f 3c 1e 55 03 3e 07 dc 84 bd
       -0.05253164 0.017507998 0.12825438 -0.064872794
000350 93 cc 7e bd cf d1 00 bd 72 0f 98 3c eb 38 8c bd
       -0.062206816 -0.03145009 0.018562052 -0.06846794
000360 da 5f 07 3d f3 8b ae 3d 24 d5 0a bd 99 6f cb bd
       0.033050396 0.08522787 -0.033894673 -0.09933395
000370 d2 37 1b be af 20 a5 bb e4 ec e6 ba c8 46 95 bd
       -0.15158013 -0.0050392966 -0.0017618206 -0.07288891
000380 73 b4 92 bd ed 81 0e 3e b3 21 d9 3c d3 88 e8 bd
       -0.07163324 0.1391675 0.026505327 -0.11354222
000390 3a 3f a3 bd a1 9d 75 bd 71 65 1a be df 91 e1 3d
       -0.07971044 -0.05996478 -0.1507776 0.11014151
0003a0 1f e7 c0 3d 02 3a 9c bc 08 c1 59 3d 65 71 92 3d
       0.09419083 -0.019070629 0.053162605 0.071505345
0003b0 dc 53 c5 3d 0c 01 9d bd fe 09 1a be 79 66 04 3e
       0.096351355 -0.07666215 -0.15042874 0.12929715
0003c0 be f7 6e bd 88 84 6e 3d 72 1c 90 3d 4d 9a 97 3d
       -0.058341734 0.05823186 0.070366755 0.074024774
0003d0 2a 8f 0c 3c cd ff c6 bd 45 69 67 bd 2f b6 0d bd
       0.008579055 -0.09716759 -0.056496877 -0.034597572
0003e0 b0 2e 4d 3c 9a 41 91 3d a4 25 00 be 2a 2e 1b 3e
       0.012523338 0.07092591 -0.12514359 0.15154329
0003f0 53 ce ca bd ce e7 e7 bd 22 b3 2b bd 9b 13 f6 bd
       -0.099026345 -0.1132351 -0.04191888 -0.12015458

layers.1.bias f4 [128]
000000 ab 8b 95 bb 34 c3 24 bc 42 60 64 3a d3 e9 9d 3c
       -0.004563769 -0.010056306 0.00087118533 0.019276535
000010 7e a1 b9 bb 00 00 00 00 21 42 56 bc ed 4d a2 bb
       -0.0056650033 0.0 -0.01307729 -0.004953137
000020 3f ff 03 bc ca f5 99 bc 66 11 b8 3c 63 bd d7 3c
       -0.008056461 -0.01879396 0.022469234 0.026335424
000030 90 90 ca bc 1a 51 36 3e d8 31 67 3c ad a0 82 bc
       -0.024727136 0.17804375 0.014111005 -0.015945757
000040 f7 c9 9e bc 80 9c 9e 3c dc 25 de 3c 45 a6 cc 3e
       -0.019383414 0.019361734 0.027117662 0.39970604
000050 8a c7 e4 3c f9 37 9b bc 77 ee 56 bc f8 a2 c5 bb
       0.027927179 -0.018947588 -0.013118378 -0.0060313903
000060 38 51 e5 3c ab 7f d5 3d 8d 93 a1 3c 56 22 bb 3d
       0.02799283 0.10424741 0.019723678 0.091374084
000070 d3 b2 51 bc a9 25 be bc 1e ff 30 bc fb 08 f2 bd
       -0.012798983 -0.023211317 -0.010803012 -0.11818119
000080 85 03 9c bc 83 ff 99 bc 81 44 c3 3c 7b 4b 26 3c
       -0.019044647 -0.018798595 0.023836376 0.010149832
000090 e7 5a 77 bc d6 39 80 bc 1f 7d 11 bc d3 c9 c4 bb
       -0.015097356 -0.015652578 -0.008879929 -0.0060055046
0000a0 d3 2c 35 3c 00 00 00 00 02 7d d2 3c 45 d0 8d bc
       0.01105805 0.0 0.025694374 -0.017311225
0000b0 21 ad 7d bc b6 ed d9 3c f0 0b d1 3c 45 46 c2 3c
       -0.015483172 0.026602607 0.025518388 0.023715148
0000c0 a9 8b 9f bc 62 98 d2 bb 87 4f 77 3c ce 83 cb 3c
       -0.019475775 -0.006426857 0.015094644 0.024843123
0000d0 5c 3e 57 3e 53 6d b0 bc 41 89 08 bc 42 4b 31 bc
       0.21019882 -0.021536505 -0.008333505 -0.0108211655
0000e0 fb 8e 59 bc 12 aa 3e bc 01 ef ad 3c a1 46 97 3c
       -0.013278718 -0.011637228 0.02123213 0.018466296
0000f0 8d 8d d3 3c 33 b9 9d bc 84 a2 45 bc 03 e0 de 3d
       0.025824333 -0.019253349 -0.0120626725 0.108825706
000100 00 00 00 00 7e f0 f7 3c f7 b2 92 bc 8e f3 0a bc
       0.0 0.030266043 -0.017907603 -0.0084809195
000110 39 82 35 bc 9f c4 47 bc 3f a1 41 3c 6f 0d a4 bc
       -0.011078411 -0.012192874 0.011818229 -0.020025937
000120 61 9d 59 bc 20 60 d2 3c 81 73 8c bc 44 75 89 bc
       -0.013282151 0.025680602 -0.01714492 -0.01677955
000130 6e 60 4d bc 78 7e d3 3c 33 d2 1c bc ca f6 1b bc
       -0.012535198 0.025817141 -0.0095716 -0.009519288
000140 8d 7e dc 3c c9 78 ca 3c 02 fb 54 bc 0c 26 69 bc
       0.026915813 0.024715798 -0.012999298 -0.0142302625
000150 7d 78 b9 bc 3b e8 13 3e 7a 9b 9c 3c f8 00 89 bc
       -0.022640461 0.14444058 0.019117106 -0.016724095
000160 48 84 86 bc ca d7 2d bd e6 1a 4b 3e a2 88 7e 3b
       -0.016420498 -0.04244212 0.1983448 0.0038838764
000170 2f 94 cd 3c 2b 64 69 bc 64 0d 8f bd 5f 2f aa bc
       0.025095074 -0.014245073 -0.06984976 -0.020774541
000180 00 00 00 00 39 df 8d bc 47 c3 af 3b fa 66 65 bc
       0.0 -0.017318355 0.005363855 -0.014001602
000190 2d a9 e8 3c 5b 04 4b bc 98 93 72 bc d1 29 21 bc
       0.028400982 -0.012391175 -0.014805697 -0.00983663
0001a0 ff 10 99 bc c2 27 fc 3d b6 03 bf 3c e8 56 d0 3c
       -0.018684862 0.12312271 0.0233172 0.025432065
0001b0 2d b8 37 bc 51 a7 40 3c 2d 61 47 3c aa 33 49 bc
       -0.0112133445 0.011758641 0.012169165 -0.012280384
0001c0 41 89 a8 bb 13 fc 46 bc c1 f6 40 bc 1b b3 5c bc
       -0.005143315 -0.01214506 -0.011777581 -0.013470436
0001d0 95 6e 6e bc 89 1c 91 bc b8 dc a5 3c 85 fb 81 3e
       -0.014552732 -0.017713802 0.020246848 0.25387207
0001e0 e0 07 34 3e 0b 55 df 3c e0 a2 dd 3c 01 32 93 bc
       0.17581129 0.027262231 0.027055204 -0.01796818
0001f0 11 7c 1e bc 9f ed 02 bc 0b c9 c4 bb b5 3c 14 3e
       -0.009673134 -0.007991224 -0.0060054115 0.14476283

layers.2.weight f4 [1, 128]
000000 db db 47 3e 19 b3 4a 3e 94 01 07 be 76 0e 3b bd
       0.19517462 0.19794883 -0.13184196 -0.045668088
000010 92 13 ae 3d 24 a1 c3 3d 0e 7b 2d 3e 95 ba 13 3c
       0.084998265 0.095522195 0.16941473 0.009016653
000020 2f 69 07 3e 1d 00 1e 3e 5c d7 46 be 7a 6e 0e be
       0.13223718 0.1542973 -0.1941809 -0.13909331
000030 8c 50 2f 3e 34 f2 98 be 7a 2d f4 bd 00 0c 4b 3e
       0.1712057 -0.29872286 -0.119227365 0.19828796
000040 15 ee da 3d 71 b1 01 be 14 45 15 be 46 0d 8a bf
       0.10689942 -0.12665345 -0.14577132 -1.0785301
000050 34 4a 41 be 13 87 8b 3d cb 77 41 3e c7 9e 84 3d
       -0.18875962 0.06812873 0.18893354 0.06475597
000060 7b cd f0 bd e3 b6 b3 bd fc 65 d4 bd a8 e4 55 be
       -0.11757942 -0.08775117 -0.103710145 -0.20888007
000070 64 d3 16 3e b9 4a 16 3e 46 a9 de 3d 8e 5c 25 bf
       0.14729077 0.14676942 0.1087213 -0.6459435
000080 0b 7b 64 3e 4f db 56 3c 00 ac 09 be ba 99 ac be
       0.22312562 0.013113811 -0.13444519 -0.33711034
000090 e8 59 28 3e 73 9f 08 3e fd b1 0e 3e 9a bd 03 3e
       0.16440547 0.13342075 0.13935085 0.12865296
0000a0 91 e6 52 be 51 34 e2 3d e8 15 4f bd b3 2a 4c 3e
       -0.20595767 0.11045135 -0.050558 0.19938163
0000b0 d4 08 1a 3e 66 1e 86 bd 92 1a 06 be 1c 54 77 be
       0.1504243 -0.06548767 -0.13096073 -0.24153179
0000c0 69 79 0f 3e e0 af 39 3e a2 1c e4 3d 2d 3b 81 be
       0.14011158 0.18133497 0.11138274 -0.2524046
0000d0 ab 1b d5 be fe ab 7c 3c e5 e8 de 3d 2c 8a 1b 3e
       -0.4162267 0.0154218655 0.10884265 0.15189427
0000e0 3e 32 0d 3e db 0e 7f 3d a1 f4 ae bd 00 66 7e 3f
       0.13788697 0.062270027 -0.08542753 0.9937439
0000f0 31 3c 75 be 4e 9a dc 3d 1e 7f 2c 3d 06 2e 40 be
       -0.23948742 0.10771619 0.042113416 -0.18767557
000100 f9 ae 29 be 10 d1 07 be 64 f2 cf 3d 0b 72 2a 3e
       -0.16570653 -0.13263345 0.10153654 0.16645066
000110 cc ba 15 3e d9 56 24 3e 12 97 43 be 27 9d db 3d
       0.14622039 0.16048755 -0.19100598 0.10723334
000120 b1 3c 72 3c 3c 48 d6 bd a9 90 1b 3e 6e 90 e2 3c
       0.014784978 -0.10462996 0.15191902 0.02765676
000130 b2 be 55 3d 18 74 f5 bd ab 0c b5 3d 06 48 01 3d
       0.052183814 -0.11985034 0.08840307 0.031562828
000140 27 74 59 be 44 3b c1 bd 0f 3a 35 3e 43 2f ef 3d
       -0.21235715 -0.09435132 0.17697929 0.11678936
000150 d9 d1 31 3e 11 32 d0 be c1 d2 63 be a1 f1 1e 3e
       0.17365207 -0.40663198 -0.22248365 0.15521862
000160 d5 3b 15 3e 3c 19 d1 bd 8a be bd be 32 f0 46 be
       0.14573605 -0.10209891 -0.37059432 -0.19427565
000170 b2 0b 0a be 6a ff a3 3d 60 33 1f be 21 4f 3a 3d
       -0.13481024 0.08007701 -0.15546942 0.04548562
000180 29 41 e2 3d c4 40 43 3e bc 9a a9 3d 11 11 1b 3e
       0.110475846 0.19067675 0.08281466 0.15143229
000190 94 96 47 be f8 c3 07 3e 7f 4b 31 3e 55 3d a0 3c
       -0.19491035 0.1325835 0.17313956 0.019560495
0001a0 80 6a e1 3c 86 21 a8 bf dc db fd bd ea 3c a0 bd
       0.027516603 -1.313523 -0.123954505 -0.078241184
0001b0 94 10 03 3d 9a 65 82 be 40 fc 35 be 9b e9 32 3d
       0.031998232 -0.2546814 -0.17772007 0.043679815
0001c0 80 5a aa 3d d3 be 1f 3e f9 a3 21 3e c4 17 16 3e
       0.08318043 0.15600137 0.15785207 0.14657503
0001d0 d1 cd 74 3d 08 5a 4c 3e db 92 c3 bd 10 27 6d be
       0.059766594 0.19956219 -0.09549495 -0.23159432
0001e0 5a e1 f3 be 85 dd 57 be e6 16 2f be ac 6d 0a 3e
       -0.47632867 -0.21080597 -0.17098579 0.13518399
0001f0 79 32 db 3d f1 16 34 3c 67 30 6d 3c a0 b6 ac be
       0.10702986 0.010991798 0.014476872 -0.33733082
