Neural DG/code_Alexi/checkpoints/model_data.pt (torch, 20390 bytes, 5 tensors)

layers.0.weight f4 [64, 2]
0.22694865 0.20539711 -0.3431362 0.019038701 0.16225311 -0.0065421495 0.25078136 0.03925078
0.22136666 0.121941395 0.017376507 0.19565727 -0.03139116 -0.039796226 -0.058260594 0.1672761
-0.18943259 -0.082289465 -0.24550048 -0.24008487 0.25550702 0.21423773 0.2730254 0.06943551
0.20613663 0.15536723 0.28609228 0.30033153 0.040143665 0.2848326 -0.022189924 -0.06677023
0.26482028 0.2047238 -0.2554945 -0.28134263 0.11588079 -0.084569626 0.012100655 0.1987077
0.2605272 0.044651173 0.2645772 0.03522515 0.18094088 -0.053010996 -0.13800126 -0.16427116
-0.13106588 0.2491128 -0.07606456 0.20532665 0.24077639 -0.23284526 0.24113442 0.2188659
0.23924132 -0.16684105 0.21328393 0.05327625 -0.19474138 0.1328852 -0.059806738 0.13726832
0.2359435 -0.13469356 0.2923487 0.08327807 -0.25770932 -0.027102085 -0.025889479 -0.23032662
0.1609937 0.037482064 -0.055744432 0.27954185 0.12871318 -0.25995147 0.073908046 -0.06409925
0.08821731 0.04277942 0.21238868 0.21616782 0.16390206 0.054357074 0.15195033 -0.001025159
0.0764332 0.041796725 -0.011149065 -0.063997686 -0.18134195 0.1676494 0.28847685 -0.028848354
-0.008193799 0.19828625 0.03520881 -0.028500408 0.19498631 -0.14933082 0.08038192 0.21847203
0.18215515 0.1323662 0.27048025 0.12099891 -0.40513623 0.006462589 0.13325587 -0.03970008
0.07027489 -0.047334835 0.098266676 0.0707771 0.16077551 -0.07529464 0.04895535 0.15939638
-0.015657555 -0.13505547 -0.28490454 0.22217825 0.014018272 0.18272048 0.006510772 0.06518854
00000000: 3a65 683e 9f53 523e 8caf afbe 0df7 9b3c
00000010: ae25 263e 875f d6bb 6a66 803e 6dc5 203d
00000020: f1ad 623e 69bc f93d 2d59 8e3c 615a 483e
00000030: 0494 00bd 5e01 23bd a9a2 6ebd 6d4a 2b3e
00000040: 9efa 41be 6187 a8bd 7a64 7bbe cfd8 75be
00000050: d1d1 823e 2361 5b3e fcc9 8b3e 3434 8e3d
00000060: 7b15 533e 9618 1f3e b07a 923e 0ec5 993e
00000070: af6d 243d 94d5 913e a5c7 b5bc d5be 88bd
00000080: 8696 873e 1ea3 513e 2dd0 82be 240c 90be
00000090: e852 ed3d d732 adbd d341 463c 087a 4b3e
000000a0: d263 853e 26e4 363d aa76 873e 3f48 103d
000000b0: 9148 393e 0f22 59bd 3450 0dbe b336 28be
000000c0: 2236 06be 6d17 7f3e bcc7 9bbd 2641 523e
000000d0: 168e 763e fd6e 6ebe f1eb 763e 621e 603e
000000e0: adfb 743e 61d8 2abe 1a67 5a3e 3238 5a3d
000000f0: 496a 47be 0f13 083e e9f7 74bd 1190 0c3e
00000100: 2c9b 713e 1ced 09be bbae 953e b18d aa3d
00000110: 7af2 83be 3105 debc 2c16 d4bc beda 6bbe
00000120: 88db 243e cb86 193d 4654 64bd 1c20 8f3e
00000130: 63cd 033e 5c18 85be 1a5d 973d 7846 83bd
00000140: 47ab b43d 7939 2f3d 6b7c 593e 195b 5d3e
00000150: f1d5 273e 86a5 5e3d de98 1b3e a15e 86ba
00000160: 0289 9c3d 0b33 2b3d 91aa 36bc 3811 83bd
00000170: b4b1 39be 49ac 2b3e 3db3 933e 6253 ecbc
00000180: 493f 06bc 8d0b 4b3e 1d37 103d b079 e9bc
00000190: 7eaa 473e 2eea 18be 479f a43d 22b7 5f3e
000001a0: e186 3a3e 018b 073e 637c 8a3e 47ce f73d
000001b0: 046e cfbe 20c4 d33b 3a74 083e 8d9c 22bd
000001c0: 48ec 8f3d 2ce2 41bd 0a40 c93d 96f3 903d
000001d0: 56a2 243e 1434 9abd 6885 483d ce38 233e
000001e0: 4644 80bc fb4b 0abe 02df 91be b282 633e
000001f0: e5ac 653c 141b 3b3e 5058 d53b 9281 853d

layers.0.bias f4 [64]
0.05529157 0.24431576 0.06760484 0.11722914 -0.080812745 -0.5176745 0.37187785 -0.3224559
-0.00084791443 0.00078842026 -0.14852458 0.08963127 0.06788559 -0.08885472 -0.04531381 -0.0029582267
-0.079943545 -0.00040131967 0.16003211 -0.08320124 -0.040153824 0.10795885 0.12564135 -0.00091357925
-0.18724065 -0.13902237 -0.010894211 -0.027535586 -0.029506441 -0.08404617 0.38217968 -0.1560706
-0.044320907 0.04950734 0.0007346234 -0.019434128 0.095190875 -0.11840021 0.019060079 0.026977202
-0.059255168 -0.045013443 0.09106009 0.1181961 0.013159681 -0.0023821525 0.011754617 -0.07874919
-0.16859683 0.18702166 0.08904086 0.07139106 -0.060383447 0.075648665 0.08988931 -0.029348338
0.34947118 0.059261963 0.2223176 0.05565663 -0.001238092 0.22264463 -0.11375149 -0.1637999
00000000: 6a79 623d e92d 7a3e 6874 8a3d d515 f03d
00000010: 2781 a5bd 5186 04bf c666 be3e f118 a5be
00000020: 9346 5eba fdad 4e3a d416 18be 9990 b73d
00000030: 9a07 8b3d 77f9 b5bd f99a 39bd cfde 41bb
00000040: 71b9 a3bd 3768 d2b9 75df 233e 6965 aabd
00000050: 5678 24bd 8819 dd3d 20a8 003e 447d 6fba
00000060: 03bc 3fbe e15b 0ebe a27d 32bc 4f92 e1bc
00000070: 7eb7 f1bc 6620 acbd 0ead c33e f9d0 1fbe
00000080: d789 35bd 35c8 4a3d be93 403a 5234 9fbc
00000090: 6ff3 c23d cf7b f2bd e223 9c3c 4bff dc3c
000000a0: 8cb5 72bd 0460 38bd b67d ba3d cc10 f23d
000000b0: b49b 573c e31d 1cbb 7096 403c 4147 a1bd
000000c0: a6a4 2cbe 9b82 3f3e 0e5b b63d 7a35 923d
000000d0: a254 77bd b0ed 9a3d e317 b83d ed6b f0bc
000000e0: e3ed b23e acbc 723d 3aa7 633e 35f8 633d
000000f0: 7947 a2ba f4fc 633e 8bf6 e8bd 29bb 27be

layers.1.weight f4 [64, 64]
-0.017806513 0.0082328245 -0.012281955 0.07680848 0.13579783 0.46577325 -0.22990121 -0.14163491
0.05413603 0.051960055 0.20437422 0.19321665 0.116473235 0.06739048 0.04753819 0.07511604
0.029210385 0.19433327 0.10104583 0.0681819 -0.20540199 0.087785535 -0.20295729 -0.21616647
0.23860529 0.063930064 -0.20647644 0.18461789 0.12693827 -0.08630515 -0.05924668 0.18728688
0.077792354 -0.19248724 -0.073195785 0.06462416 -0.16750075 -0.086510494 0.015468009 0.09205714
0.028980838 -0.20455393 -0.15740225 -0.03852323 -0.029945102 -0.06458834 0.18514296 0.15857284
0.21295409 -0.2657947 -0.22664355 0.19064438 -0.0665568 -0.21473439 0.23319875 -0.062156126
-0.13222319 0.15147044 -0.16432099 -0.12382957 0.13782369 -0.07848564 -0.0925159 0.1106374
0.037815236 0.14648387 0.15611306 0.20202838 0.15939654 0.22511142 -0.24803199 -0.110603504
-0.18720204 0.04337979 0.07939553 -0.18839537 0.056468744 -0.0011061494 0.014706785 0.063679144
0.14458819 0.025608564 0.0059224204 0.19836448 0.07877126 0.0077408045 0.07122416 -0.1722073
0.06332554 -0.0029271233 -0.1090976 0.030042645 -0.023536403 0.011759226 -0.23764601 -0.14680678
0.16992457 -0.092525534 0.23509715 0.20033306 0.10827759 0.22105856 0.029588401 -0.11294983
0.052292526 0.045977913 0.1319167 -0.18974711 0.20542654 -0.17035729 0.1524761 0.026008183
0.18886977 -0.24486795 -0.19018865 -0.20547943 0.09595954 -0.0646311 0.28282434 -0.19580083
0.1317186 -0.13938116 -0.09912259 -0.0071420223 -0.1933377 -0.14534687 0.2102938 0.18517189
0.20151204 0.14112039 0.0354647 0.16782665 -0.11335509 -0.34826022 0.30185032 0.09762741
-0.17987438 -0.08357405 -0.13729085 -0.20390636 0.07872675 -0.18579265 0.1604729 0.11356764
-0.046638865 -0.1881635 -0.042050153 -0.16839881 -0.15631513 -0.12897056 0.2180698 0.19250509
-0.163301 0.17374283 0.058226276 0.10276231 0.12678897 0.04952951 0.19907431 0.13618726
0.0024396388 0.09320113 0.074912585 0.014795386 0.19692151 -0.178833 0.08089119 0.06408459
0.10159613 -0.0625478 -0.061841372 -0.021571184 0.06895471 0.13871339 0.19765943 -0.16744888
0.1501472 -0.028591001 0.21903136 0.18650328 0.083595105 -0.14140229 -0.059738472 -0.034047317
-0.084527545 -0.013902753 0.019651184 0.11494913 -0.09976906 0.19492716 0.15428747 -0.05531396
0.12750679 0.19408754 0.0058764666 0.19702971 -0.35171586 0.017723247 -0.07531248 1.0085195
-0.05608639 -0.073165074 -0.28836447 0.2891261 -0.014430815 -0.05247689 0.1294845 0.22829075
-0.08206124 -0.09244138 -0.21988188 -0.04930143 -0.16445428 0.067882724 0.031668663 -0.1007022
-0.07151736 0.02700362 0.32178372 0.23973233 0.48517293 -0.51391584 0.22357544 -0.34165764
0.056205656 -0.030858671 0.053763244 0.049471907 0.116242774 -0.18380035 -0.25405785 -1.1090636
-0.68244153 0.17475648 -0.053996425 0.20324053 -0.0195366 -0.13195013 0.26643464 0.6390786
-0.16363543 0.071382016 -0.3378112 -0.041070018 -0.2958055 -0.04944884 0.14119364 -0.5011712
-0.09530661 -0.039765958 -0.36890182 -0.08803873 -0.17802566 0.07956201 -0.16482317 0.24856807
00000000: f7de 91bc f8e2 063c 413a 49bc c44d 9d3d
00000010: 960e 0b3e d579 ee3e 396b 6bbe be08 11be
00000020: bebd 5d3d 11d4 543d 7a47 513e 96da 453e
00000030: 8589 ee3d 0504 8a3d 68b7 423d 70d6 993d
00000040: 9e4a ef3c 4dff 463e 1ef1 ce3d f4a2 8b3d
00000050: e654 52be e7c8 b33d 09d4 4fbe be5a 5dbe
00000060: f254 743e c4ed 823d 8f6e 53be 790c 3d3e
00000070: 1bfc 013e c1c0 b0bd a6ac 72bd 22c8 3f3e
00000080: 9951 9f3d 601b 45be ace7 95bd ac59 843d
00000090: 5185 2bbe 6a2c b1bd 886d 7d3c 7488 bc3d
000000a0: 3969 ed3c 9676 51be 0e2e 21be 89ca 1dbd
000000b0: 6e4f f5bc e446 84bd 1e96 3d3e eb60 223e
000000c0: a310 5a3e 3e16 88be 3f15 68be 4838 433e
000000d0: ee4e 88bd 55e3 5bbe a7cb 6e3e 6c97 7ebd
000000e0: 8465 07be 111b 1b3e c343 28be 5c9a fdbd
000000f0: a721 0d3e 14bd a0bd fa78 bdbd dc95 e23d
00000100: 26e4 1a3d deff 153e 1adc 1f3e 87e0 4e3e
00000110: d938 233e 9c83 663e 19fc 7dbe 1784 e2bd
00000120: e4b1 3fbe 02af 313d 209a a23d b7ea 40be
00000130: c54b 673d 37fc 90ba baf4 703c 366a 823d
00000140: ed0e 143e 0dc9 d13c dd10 c23b 0f20 4b3e
00000150: d452 a13d 93a6 fd3b f9dd 913d 1c57 30be
00000160: d2b0 813d fbd4 3fbb 906e dfbd fe1b f63c
00000170: 6acf c0bc c5a9 403c 7a59 73be 8454 16be
00000180: b500 2e3e 077e bdbd 4fbd 703e 1c24 4d3e
00000190: a4c0 dd3d 2d5d 623e 6063 f23c 3e52 e7bd
000001a0: b030 563d 5653 3c3d 2c15 073e 114d 42be
000001b0: 565b 523e 2472 2ebe b222 1c3e 1d0f d53c
000001c0: 1467 413e aabe 7abe d0c0 42be 3369 52be
000001d0: 6f86 c43d 4f5d 84bd 5ace 903e 0380 48be
000001e0: 3ee1 063e efb9 0ebe c900 cbbd a007 eabb
000001f0: 51fa 45be cfd5 14be 4257 573e b39d 3d3e
00000200: 2c59 4e3e dd81 103e 6f43 113d c0da 2b3e
00000210: b726 e8bd 2a4f b2be 208c 9a3e e1f0 c73d
00000220: fd30 38be df28 abbd f995 0cbe d4cc 50be
00000230: 7e3b a13d 6e40 3ebe 0253 243e 2796 e83d
00000240: 6508 3fbd efad 40be c83c 2cbd bd70 2cbe
00000250: 1311 20be dc10 04be b14d 5f3e 0e20 453e
00000260: 6138 27be a4e9 313e ad7e 6e3d 0c75 d23d
00000270: f8d4 013e 75df 4a3d 23da 4b3e ac74 0b3e
00000280: 59e2 1f3b 3ce0 be3d c56b 993d 5968 723c
00000290: cba5 493e ff1f 37be 48aa a53d c83e 833d
000002a0: a211 d03d 1019 80bd 614d 7dbd 0db6 b0bc
000002b0: 2138 8d3d e20a 0e3e 3c67 4a3e b877 2bbe
000002c0: 30c0 193e ad37 eabc c249 603e b7fa 3e3e
000002d0: e933 ab3d c3cb 10be 54b0 74bd 3375 0bbd
000002e0: c71c adbd 5fc8 63bc 85fb a03c 736a eb3d
000002f0: b953 ccbd fc9a 473e 89fd 1d3e e490 62bd
00000300: 2491 023e e2be 463e 608f c03b 28c2 493e
00000310: 1a14 b4be 5830 913c 6e3d 9abd 2b17 813f
00000320: d8ba 65bd 92d7 95bd 82a4 93be 5608 943e
00000330: 3a6f 6cbc 02f2 56bd 9697 043e 0dc5 693e
00000340: b90f a8bd e851 bdbd b728 61be 4cf0 49bd
00000350: b466 28be 1906 8b3d 00b7 013d f43c cebd
00000360: b277 92bd b236 dd3c d6c0 a43e 647c 753e
00000370: 9668 f83e fd8f 03bf f6f0 643e c0ed aebe
00000380: e737 663d 53cb fcbc d936 5c3d 0ea3 4a3d
00000390: b110 ee3d 2936 3cbe df13 82be ccf5 8dbf
000003a0: 7db4 2ebf 5df3 323e 5b2b 5dbd 491e 503e
000003b0: 380b a0bc ef1d 07be 1f6a 883e a89a 233f
000003c0: 0c90 27be bc30 923d 97f5 acbe 0939 28bd
000003d0: d273 97be de8a 4abd 1195 103e c14c 00bf
000003e0: 1d30 c3bd a1e1 22bd b3e0 bcbe a64d b4bd
000003f0: 5c4c 36be 68f1 a23d 68c7 28be a188 7e3e

layers.1.bias f4 [64]
-0.08680647 -0.08063366 0.090555914 0.04896008 0.07863079 -0.30246156 -0.07609916 -0.08634463
-0.020230852 0.015827892 -0.07519165 0.24420877 0.0868521 -0.055994157 -0.023562115 -0.011859102
0.1006819 0.07744348 -0.17839345 -0.005435323 -0.005441793 0.04653898 -0.08014192 -0.084084146
-0.008472227 -0.005417612 0.08281579 -0.014092238 -0.0028807633 0.07166518 0.020994635 0.07768139
-0.08120188 0.083672464 -0.27832717 0.07767431 -0.010964975 0.094700076 -0.0038738516 -0.0785153
0.0 -0.022181444 -0.01260542 0.15438366 0.076685846 -0.020240856 -0.010118669 0.08455527
0.07924451 0.080720246 0.09750862 0.21297039 0.0 -0.07574377 -0.0094083 0.09108955
0.07914518 -0.01640028 -0.00074447354 0.07717256 -0.029623885 0.0013032929 -0.007404454 0.10063903
00000000: 97c7 b1bd 4323 a5bd 6175 b93d 5d8a 483d
00000010: 2e09 a13d 3edc 9abe e0d9 9bbd 74d5 b0bd
00000020: 2cbb a5bc 7fa9 813c 14fe 99bd dd11 7a3e
00000030: 84df b13d 215a 65bd 5605 c1bc ae4c 42bc
00000040: 5032 ce3d b09a 9e3d c6ac 36be cb1a b2bb
00000050: 1151 b2bb a89f 3e3d 7221 a4bd 4f34 acbd
00000060: 18cf 0abc 3986 b1bb 539b a93d 21e3 66bc
00000070: 30cb 3cbb 32c5 923d f1fc ab3c 6c17 9f3d
00000080: 2c4d a6bd 785c ab3d e680 8ebe b513 9f3d
00000090: 70a6 33bc 1df2 c13d 72e0 7dbb a1cc a0bd
000000a0: 0000 0000 dcb5 b5bc f786 4ebc c016 1e3e
000000b0: 780d 9d3d 27d0 a5bc c6c8 25bc 502b ad3d
000000c0: f24a a23d a850 a53d 99b2 c73d e914 5a3e
000000d0: 0000 0000 8d1f 9bbd 4525 1abc 288d ba3d
000000e0: de16 a23d e159 86bc c628 43ba a60c 9e3d
000000f0: caad f2bc 41d3 aa3a 10a1 f2bb d61b ce3d

layers.2.weight f4 [1, 64]
-0.10699621 -0.18273218 0.18867879 0.43557787 0.102025345 -0.4426339 -0.18709469 -0.12703077
-0.24761757 0.39341918 -0.343023 -0.66108066 0.36930645 0.14980726 -0.19085366 -0.07125081
0.29883283 0.21675745 -0.579651 0.19801846 0.16775233 -0.7411063 -0.03159163 -0.20698093
-0.038196202 0.06808646 0.30095842 -0.2423492 -0.42373607 -0.19328511 -0.16872208 0.080113776
-0.2736503 0.034391426 -0.3460808 0.17127897 -0.21192276 0.025774669 0.124597214 -0.08013654
0.049120963 -0.41724998 0.17989886 -0.5580672 0.036047835 -0.04964286 -0.056066345 0.31169292
0.14906214 0.15765458 -0.5354414 -0.45400578 0.15516052 -0.2897493 0.0774752 0.12055664
0.106297165 -0.0003060291 0.043604832 0.14349781 -0.34608966 -0.40940306 0.07177104 0.35902968
00000000: d420 dbbd 251e 3bbe 0335 413e 1004 df3e
00000010: aaf2 d03d e9a0 e2be c095 3fbe 5b14 02be
00000020: 768f 7dbe 3d6e c93e b6a0 afbe 953c 29bf
00000030: bc15 bd3e 1367 193e 246f 43be f2eb 91bd
00000040: 9e00 993e aaf5 5d3e 0264 14bf 5ac5 4a3e
00000050: 44c7 2b3e 24b9 3dbf 3a66 01bd cff2 53be
00000060: 9f73 1cbd ea70 8b3d 3917 9a3e 642a 78be
00000070: eff3 d8be 88ec 45be 7bc5 2cbe b112 a43d
00000080: e41b 8cbe 06de 0c3d 8131 b1be c163 2f3e
00000090: 4802 59be 6625 d33c d32c ff3d a01e a4bd
000000a0: 1033 493d caa1 d5be 6837 383e 7edd 0ebf
000000b0: e5a6 133d 5056 4bbd d3a5 65bd 3796 9f3e
000000c0: bfa3 183e 3470 213e b012 09bf 7273 e8be
000000d0: 66e2 1e3e 055a 94be 51ab 9e3d 66e6 f63d
000000e0: 54b2 d93d 8872 a0b9 fb9a 323d 17f1 123e
000000f0: aa32 b1be 479d d1be b2fc 923d bdd2 b73e
