Neural DG/code_Alexi/checkpoints/pretrain.pt (torch, 20498 bytes, 5 tensors)

layers.0.weight f4 [64, 2]
0	0x3e6e558d	0.23274823
1	0x3e57c992	0.21072987
2	0xbeafe326	-0.34352988
3	0x3c93225b	0.017960718
4	0x3e2289e8	0.1587292
5	0xbc29bebc	-0.010360416
6	0x3e8138aa	0.25238544
7	0x3d277686	0.040884517
8	0x3e5ed46a	0.21760717
9	0x3df3987c	0.118943185
10	0x3c8fec6f	0.017568795
11	0x3e48cc3a	0.19609156
12	0xbcfdc224	-0.030976363
13	0xbd1fcbcd	-0.03901272
14	0xbd6c335e	-0.057666175
15	0x3e2c5adf	0.1683154
16	0xbe42c4a4	-0.19020325
17	0xbd9fa4b7	-0.07795089
18	0xbe79b14b	-0.24384038
19	0xbe78d35c	-0.24299377
20	0x3e81ed74	0.25376475
21	0x3e59c1bc	0.2126531
22	0x3e8c392d	0.27387372
23	0x3d90a4e8	0.07062703
24	0x3e55d970	0.20883727
25	0x3e225bd6	0.15855345
26	0x3e923c7f	0.2856178
27	0x3e9959ad	0.2995123
28	0x3d3129dd	0.043252815
29	0x3e92e27e	0.28688425
30	0xbc300d03	-0.01074529
31	0xbd2f423f	-0.042787787
32	0x3e882c0e	0.2659611
33	0x3e523b3f	0.20530413
34	0xbe8373e6	-0.2567436
35	0xbe8bd38a	-0.2730983
36	0x3de7b0d3	0.113130234
37	0xbdb24d5e	-0.08706163
38	0x3c285d61	0.0102761695
39	0x3e4a7bef	0.1977384
40	0x3e83d2ff	0.25746915
41	0x3d2d546a	0.04231683
42	0x3e8718de	0.2638616
43	0x3d0f5543	0.03499342
44	0x3e399593	0.18123464
45	0xbd55dae4	-0.052210703
46	0xbe10f888	-0.14157307
47	0xbe1fe591	-0.15614916
48	0xbe074df4	-0.1321333
49	0x3e7e28c3	0.24820237
50	0xbda2a714	-0.07942024
51	0x3e4f0d7e	0.2021999
52	0x3e7245a2	0.23659375
53	0xbe713220	-0.23554277
54	0x3e74a91f	0.2389264
55	0x3e5e470c	0.2170679
56	0x3e77b409	0.24189772
57	0xbe290e92	-0.16509464
58	0x3e5b6027	0.21423398
59	0x3d5dd533	0.0541584
60	0xbe46a518	-0.19398916
61	0x3e08e893	0.1336997
62	0xbd6ee399	-0.058322523
63	0x3e0e91dd	0.1392283
64	0x3e71d9ad	0.23618193
65	0xbe0a1d7f	-0.13487814
66	0x3e9385d3	0.28813037
67	0x3da0dbdf	0.07854437
68	0xbe82be39	-0.25535753
69	0xbd08eec4	-0.03343083
70	0xbd34f647	-0.04418018
71	0xbe642a12	-0.22281674
72	0x3e272ba8	0.16325247
73	0x3d201489	0.039082084
74	0xbd63e402	-0.055637367
75	0x3e8f3137	0.27967235
76	0x3e083e26	0.13304958
77	0xbe803d43	-0.2504674
78	0x3d9103a4	0.070807725
79	0xbd8837d8	-0.06651276
80	0x3daddba7	0.08489161
81	0x3d229294	0.03969057
82	0x3e5780ee	0.21045277
83	0x3e5b776a	0.21432272
84	0x3e2a01da	0.16602269
85	0x3d638728	0.055548817
86	0x3e1d2469	0.1534592
87	0xb89a6d0f	-7.363606e-05
88	0x3d981851	0.07426513
89	0x3d25b594	0.04045637
90	0xb9bdea1a	-0.00036223308
91	0xbd7711c5	-0.06031968
92	0xbe3f3c7c	-0.18675417
93	0x3e250e90	0.16118836
94	0x3e942f1c	0.28942192
95	0xbce7bd3d	-0.028288478
96	0xbc2cac28	-0.010539092
97	0x3e492aaf	0.19645189
98	0x3d0818ba	0.033226706
99	0xbcf6bb10	-0.030118495
100	0x3e4654ec	0.19368333
101	0xbe1a396b	-0.15060966
102	0x3daa52a5	0.083165444
103	0x3e631599	0.22176208
104	0x3e39d51b	0.181477
105	0x3e08133e	0.1328859
106	0x3e89f57c	0.26945102
107	0x3df6a8b2	0.12043895
108	0xbecf155a	-0.40445977
109	0x3be6fe66	0.0070493696
110	0x3e082910	0.13296914
111	0xbd250781	-0.04029036
112	0x3d8edc1f	0.069755785
113	0xbd451cce	-0.048123173
114	0x3dc87f5a	0.097899154
115	0x3d9205ee	0.07130037
116	0x3e2346a7	0.1594492
117	0xbd9c2624	-0.07624462
118	0x3d52767c	0.051382527
119	0x3e254646	0.16140088
120	0xba145f32	-0.0005659937
121	0xbe0470e0	-0.12933683
122	0xbe8d89e8	-0.27644277
123	0x3e6bd9b6	0.23032269
124	0x3c506b96	0.012720963
125	0x3e39f931	0.18161465
126	0x3baa8a5d	0.0052044825
127	0x3d8291e0	0.0637548

layers.0.bias f4 [64]
0	0x3d670fa3	0.056411397
1	0x3e7a418b	0.24439065
2	0x3d881d2c	0.06646189
3	0x3df6b092	0.12045397
4	0xbda94aea	-0.08266242
5	0xbf04a99e	-0.51821315
6	0x3ebe6cb4	0.3719231
7	0xbea53381	-0.32265857
8	0x00000000	0.0
9	0x00000000	0.0
10	0xbe19cea6	-0.15020236
11	0x3db8df45	0.0902696
12	0x3d9664a1	0.07343412
13	0xbdb893ab	-0.090125404
14	0xbd310350	-0.04321605
15	0x00000000	0.0
16	0xbda3eaf4	-0.08003798
17	0x00000000	0.0
18	0x3e22f1c7	0.15912543
19	0xbdacbd80	-0.08434582
20	0xbd2cc125	-0.042176384
21	0x3ddbde04	0.107357055
22	0x3e00b387	0.12568484
23	0x00000000	0.0
24	0xbe426af5	-0.18986113
25	0xbe14201e	-0.14465377
26	0xbc4aa732	-0.012368964
27	0xbcecb3a0	-0.028894246
28	0xbce0867e	-0.02740788
29	0xbdad4a7d	-0.08461473
30	0x3ec4e081	0.38452533
31	0xbe1eb9a9	-0.15500511
32	0xbd381723	-0.04494394
33	0x3d46ca8d	0.04853301
34	0x00000000	0.0
35	0x00000000	0.0
36	0x3dc533d2	0.096290246
37	0xbdf4242a	-0.1192096
38	0x3ca8e8e3	0.020618862
39	0x3cd0160a	0.025401134
40	0xbd846044	-0.06463674
41	0xbd3eadaf	-0.046552356
42	0x3dbcbc37	0.09215587
43	0x3df49515	0.11942498
44	0x3c48bf19	0.0122525925
45	0x00000000	0.0
46	0x3c3e755f	0.011624663
47	0xbd9eef42	-0.077604786
48	0xbe2fc59b	-0.17165224
49	0x3e3ec2b1	0.18628956
50	0x3db418fd	0.08793829
51	0x3d947cc1	0.072503574
52	0xbd7d6de0	-0.061872363
53	0x3d999a6e	0.07500158
54	0x3db847e4	0.08998087
55	0xbcf9c06c	-0.030487262
56	0x3eb357c1	0.35027888
57	0x3d75bcab	0.05999438
58	0x3e628836	0.22122273
59	0x3d68c629	0.056829605
60	0x00000000	0.0
61	0x3e67e6fd	0.22646709
62	0xbdf00a89	-0.117207594
63	0xbe2b2815	-0.16714509

layers.1.weight f4 [64, 64]
0	0xbc9b0804	-0.01892472
1	0x3da6279b	0.08113023
2	0xbc5ed7d8	-0.013601266
3	0x3d9aab7e	0.07552241
4	0x3e0a0a03	0.13480382
5	0x3eef5d96	0.46751088
6	0xbe71fa98	-0.2363075
7	0xbe0ca28b	-0.1373388
8	0x3d867605	0.06565479
9	0x3d54d411	0.051960055
10	0x3e505473	0.20344715
11	0x3e449849	0.19198717
12	0x3dec2370	0.11530197
13	0x3d87fe9e	0.06640361
14	0x3d3ef397	0.046619024
15	0x3d99d670	0.07511604
16	0x3ce72d3b	0.02821981
17	0x3e46ff4d	0.19433327
18	0x3dca36c3	0.09873726
19	0x3d8a05e2	0.06739403
20	0xbe537106	-0.20648584
21	0x3db12bb1	0.086509116
22	0xbe516b72	-0.20451143
23	0xbe5d5abe	-0.21616647
24	0x3e74fb5d	0.23924012
25	0x3d82abc5	0.06380419
26	0xbe3ebdf0	-0.18627143
27	0x3e3bf9f4	0.18357068
28	0x3e0009b1	0.12503697
29	0xbdb2ba6e	-0.08726965
30	0xbd822d3b	-0.06356283
31	0x3e40c544	0.18825251
32	0x3d9beb02	0.076131836
33	0xbe464c6c	-0.1936509
34	0xbd9c7af4	-0.07640639
35	0x3d8459ac	0.06462416
36	0xbe2cd21f	-0.1687703
37	0xbdb27356	-0.08713405
38	0x3c7d6d88	0.015468009
39	0x3db50744	0.088392764
40	0x3ce643ea	0.028108556
41	0xbe527fc3	-0.2055655
42	0xbe2272e8	-0.15864146
43	0xbd2366a8	-0.039892823
44	0xbcfed973	-0.031109547
45	0xbd8446e4	-0.06458834
46	0x3e50a675	0.20375998
47	0x3e21569f	0.157557
48	0x3e598b77	0.21244608
49	0xbe896f6e	-0.26842827
50	0xbe6abd09	-0.22923674
51	0x3e421129	0.18951859
52	0xbd8a5851	-0.06755126
53	0xbe5d19bb	-0.21591847
54	0x3ea574bf	0.32315633
55	0xbd817c9b	-0.06322595
56	0xbe09dc3a	-0.13462916
57	0x3e19d55f	0.15022801
58	0xbe2a2fdc	-0.1661982
59	0xbdffe8cd	-0.12495575
60	0x3e0d21a7	0.13782369
61	0xbd9d4203	-0.07678606
62	0xbdbed999	-0.09318847
63	0x3de5d0f8	0.11221498
64	0x3d1d866f	0.038458284
65	0x3e2b303c	0.16717619
66	0x3e20c8b7	0.15701567
67	0x3e4fb090	0.20282197
68	0x3e23e470	0.1600511
69	0x3e68a084	0.22717482
70	0xbe7d4246	-0.24732313
71	0xbdd99456	-0.10623996
72	0xbe3f335d	-0.18671937
73	0x3d31af02	0.04337979
74	0x3da3d6bb	0.07999941
75	0xbe40246d	-0.18763895
76	0x3d69eed5	0.057112534
77	0xba033021	-0.0005004425
78	0x3c77b5c3	0.015119019
79	0x3d826a36	0.063679144
80	0x3e14b9d2	0.1452401
81	0x3cd1c90d	0.025608564
82	0x3beb1a3a	0.0071747573
83	0x3e4b6601	0.1986313
84	0x3da2ea53	0.0795485
85	0x3c0bdbf6	0.0085363295
86	0x3d93d905	0.072191276
87	0xbe30571c	-0.1722073
88	0x3d81bc2b	0.06334718
89	0xbb64618b	-0.003484818
90	0xbda69704	-0.08134273
91	0x3cfb274f	0.030658392
92	0xbcb243f4	-0.021760918
93	0x3c4d3c0a	0.012526521
94	0xbe73bd4b	-0.23802678
95	0xbe155295	-0.14582284
96	0x3e2f627e	0.17127416
97	0xbdbbe85f	-0.09175181
98	0x3df88166	0.12134056
99	0x3e4d241c	0.20033306
100	0x3ddf67ec	0.109084934
101	0x3e627141	0.22113515
102	0xbc628cc0	-0.013827503
103	0xbde4181c	-0.11137411
104	0x3d58ee36	0.05296155
105	0x3d3ecdb1	0.04658288
106	0x3e07e284	0.13270003
107	0xbe416052	-0.188844
108	0x3e5307d7	0.2060846
109	0xbe2e7224	-0.17035729
110	0x3e442c70	0.19157577
111	0x3cdcf6c4	0.026973136
112	0x3e414ce3	0.18876986
113	0xbe79dfcb	-0.24401776
114	0xbe41536d	-0.1887948
115	0xbe51e563	-0.2049766
116	0x3dc5d8cb	0.096604906
117	0xbd82ea92	-0.06392397
118	0x3e96119f	0.2931032
119	0xbe474b40	-0.194623
120	0x3e07c4d5	0.13258679
121	0xbe0e1354	-0.1387456
122	0xbdc8e8e9	-0.09810049
123	0xbbd9821a	-0.006637824
124	0xbe45fa51	-0.1933377
125	0xbe14cca5	-0.1453119
126	0x3e579655	0.21053441
127	0x3e3f7583	0.18697171
128	0x3e4ed399	0.20197906
129	0x3e106aea	0.14103284
130	0x3d114b64	0.03547229
131	0x3e2bf6b9	0.16793336
132	0xbde69062	-0.112580076
133	0xbeb1f732	-0.34758908
134	0x3e9a48cc	0.30133665
135	0x3dc607f1	0.096694835
136	0xbe36f0c4	-0.17865282
137	0xbdb1a61b	-0.0867426
138	0xbe0bcc5a	-0.13652173
139	0xbe5090ef	-0.20367788
140	0x3da203d4	0.079108864
141	0xbe3d5c13	-0.18492155
142	0x3e256305	0.16151054
143	0x3de068b7	0.10957473
144	0xbd3babc1	-0.045818094
145	0xbe407740	-0.1879549
146	0xbd2e1be9	-0.042507086
147	0xbe2b6335	-0.16737063
148	0xbe1f55aa	-0.15560022
149	0xbe03ef1c	-0.12884182
150	0x3e5f2080	0.21789742
151	0x3e487f77	0.19579874
152	0xbe258839	-0.16165246
153	0x3e33f25f	0.17572926
154	0x3cf06ba9	0.029348211
155	0x3dd41d20	0.10357118
156	0x3e0156d6	0.12630782
157	0x3d4d6002	0.05014039
158	0x3e4b8847	0.19876204
159	0x3e0c5564	0.13704449
160	0x3b1cbe6b	0.002391721
161	0x3dbf94cc	0.093545526
162	0x3d9823b1	0.074286826
163	0x3c2f6509	0.010705241
164	0x3e49b494	0.19697791
165	0xbe35f312	-0.17768505
166	0x3da449bb	0.080218755
167	0x3d81b6a1	0.06333662
168	0x3dd15ac8	0.10222393
169	0xbd7ca90b	-0.06168465
170	0xbd7cdfec	-0.061736986
171	0xbcb185e7	-0.021670295
172	0x3d8e3c6f	0.069451205
173	0x3e09c9f7	0.1345595
174	0x3e49b814	0.19699126
175	0xbe2b0742	-0.16701987
176	0x3e1b3f29	0.15160812
177	0xbced5cf1	-0.028974982
178	0x3e5fb61b	0.21846811
179	0x3e3f751c	0.18697017
180	0x3dacdc1a	0.084404185
181	0xbe1073f2	-0.1410673
182	0xbd7435b3	-0.059621524
183	0xbd0aa0cc	-0.033844754
184	0xbdadeac6	-0.08492045
185	0xbc5f8ab9	-0.013643914
186	0x3c9e69c5	0.019337544
187	0x3dec536c	0.11539349
188	0xbdd32b9e	-0.10311054
189	0x3e471fc5	0.19445713
190	0x3e1f080e	0.15530416
191	0xbd5f4d95	-0.054517347
192	0x3e025e84	0.12731367
193	0x3e46a8b6	0.19400296
194	0x3bbae622	0.0057037035
195	0x3e498fdb	0.19683783
196	0xbeb3ae9e	-0.3509416
197	0x3e176c02	0.14787295
198	0xbd9a89a7	-0.07545786
199	0x3f81d190	1.0142078
200	0xbd5bac47	-0.053631093
201	0xbd9b00f5	-0.07568542
202	0xbe9356e0	-0.28777218
203	0x3e93ef37	0.28893444
204	0xbc6ffbbe	-0.014647422
205	0xbd541812	-0.051780768
206	0x3e050024	0.12988335
207	0x3e5d2ad3	0.21598367
208	0xbda68230	-0.081303
209	0xbdbd3ab7	-0.092397146
210	0xbe614e2c	-0.22002476
211	0xbd4c7ef3	-0.049925756
212	0xbe278e5d	-0.16362901
213	0x3d8aa3db	0.06769534
214	0x3d010b67	0.031505015
215	0xbdc9f661	-0.09861446
216	0xbe67f6d7	-0.22652756
217	0xbe02e37c	-0.12782091
218	0x3e7d0a8f	0.24711059
219	0x3e75c087	0.23999225
220	0x3ef8cf13	0.48595485
221	0xbf035c92	-0.51313126
222	0x3e64c709	0.22341551
223	0xbeef6b8a	-0.46761733
224	0x3d6a0e06	0.05714228
225	0xbcfe4998	-0.031040952
226	0x3d5d1438	0.05397436
227	0x3d0e2470	0.03470272
228	0x3deda586	0.11603837
229	0xbe433f4f	-0.19067119
230	0xbe822877	-0.25421497
231	0xbf8dfd95	-1.1093012
232	0xbf2ea290	-0.682168
233	0x3e337d47	0.17528258
234	0xbd5e0468	-0.05420342
235	0x3e4fec5b	0.20305006
236	0xbca145ae	-0.019686546
237	0xbe157722	-0.14596227
238	0x3e884040	0.2661152
239	0x3f23d389	0.6399465
240	0xbe9ae0db	-0.30249676
241	0x3d91e2da	0.071233466
242	0xbead0b54	-0.33797705
243	0xbd292f21	-0.04130471
244	0xbe970f1d	-0.29503718
245	0xbd4b5549	-0.04964188
246	0x3e10be0d	0.14134999
247	0xbf001056	-0.50024927
248	0xbdc383eb	-0.09546646
249	0xbd23cb3b	-0.039988738
250	0xbebcf4e5	-0.3690559
251	0xbdb4ca63	-0.08827665
252	0xbe449af4	-0.19199735
253	0x3da29537	0.07938617
254	0xbe41f352	-0.18940476
255	0x3ebe1e02	0.3713227

layers.1.bias f4 [64]
0	0xbdb6fdcf	-0.08935129
1	0xbda3b27c	-0.079930276
2	0x3db8ad57	0.09017437
3	0x3d47e5c9	0.048803125
4	0x3d9ff971	0.07811249
5	0xbe95b4d1	-0.29239514
6	0xbd9c2c64	-0.07625654
7	0xbdaee09b	-0.08538934
8	0xbd020ee5	-0.031752486
9	0xbc212cd1	-0.009837345
10	0xbd9d8687	-0.07691675
11	0x3e7b13b4	0.24519235
12	0x3db0c876	0.08631985
13	0xbd59a241	-0.053133253
14	0xbcbed0af	-0.023292867
15	0x00000000	0.0
16	0x3dcd6f23	0.10030963
17	0x3d9d855a	0.076914504
18	0xbe2f0e7a	-0.17095366
19	0x00000000	0.0
20	0x3a705b4a	0.00091688766
21	0x3d8c9b18	0.06865519
22	0xbda1df1b	-0.07903882
23	0xbdaeec4e	-0.08541165
24	0xbc0acf18	-0.008472227
25	0xbbb18639	-0.005417612
26	0x3da884c3	0.08228447
27	0xbc66e321	-0.014092238
28	0xbbffa486	-0.007801595
29	0x00000000	0.0
30	0x00000000	0.0
31	0x3d9e0a89	0.07716853
32	0xbda4dfbe	-0.08050488
33	0x3daa5db9	0.083186574
34	0xbe8ac5b6	-0.27103966
35	0x3d9dffcb	0.07714804
36	0xbc33a670	-0.010964975
37	0x3dc0fd30	0.09423292
38	0xbc5af4f8	-0.013364069
39	0xbda64f6c	-0.08120617
40	0x00000000	0.0
41	0xbc710687	-0.014711029
42	0xbc4e86f7	-0.01260542
43	0x3e1ef65e	0.15523669
44	0x3d9c1106	0.076204345
45	0xbc4e7fca	-0.0126037095
46	0x00000000	0.0
47	0x3dac14ba	0.08402391
48	0x3da1373d	0.07871864
49	0x3da43ced	0.08019433
50	0x3dc9a5d1	0.0984608
51	0x3e5b6d66	0.21428451
52	0x00000000	0.0
53	0xbd99ae01	-0.07503892
54	0xbc1a2545	-0.0094083
55	0x3db97b3a	0.09056707
56	0x3da106ee	0.0786265
57	0xbc5e038b	-0.013550649
58	0xbaffec02	-0.0019525292
59	0x3d9cfa15	0.07664887
60	0xbcdecd11	-0.027197393
61	0xbc07b294	-0.008282322
62	0xbbf2a110	-0.007404454
63	0x3dcd04d4	0.100106865

layers.2.weight f4 [1, 64]
0	0xbde36b69	-0.11104471
1	0xbe3b8107	-0.18310939
2	0x3e40ce32	0.18828657
3	0x3edefa21	0.43550208
4	0x3dcfea1a	0.10152073
5	0xbee6d848	-0.45086884
6	0xbe41e209	-0.18933882
7	0xbe02c5fe	-0.1277084
8	0xbe59e8fd	-0.21280284
9	0x3e69b88c	0.22824305
10	0xbeb16c96	-0.34653157
11	0xbf2971f2	-0.6618949
12	0x3ebcdb19	0.36885908
13	0x3e0fd9ea	0.14047971
14	0xbe438064	-0.19091946
15	0xbd841b5b	-0.0645053
16	0x3e98ce69	0.29844978
17	0x3e5d96a4	0.21639496
18	0xbf15f671	-0.58579165
19	0x3e8cfe48	0.2753775
20	0x3e32d421	0.17463733
21	0xbf40d6e1	-0.7532788
22	0xbd046779	-0.03232524
23	0xbe56ba9f	-0.20969628
24	0xbd1c739f	-0.038196202
25	0x3d8b70ea	0.06808646
26	0x3e99d6de	0.30046743
27	0xbe782a64	-0.2423492
28	0xbe5c45cb	-0.21510999
29	0xbde21b50	-0.11040366
30	0xbd94cd07	-0.07265668
31	0x3da30a1c	0.079609126
32	0xbe8c7b3c	-0.2743777
33	0x3d0b46d5	0.034003098
34	0xbeb4bdc6	-0.35301036
35	0x3e2ee940	0.17081165
36	0xbe590248	-0.21192276
37	0x3ccfe72d	0.025378788
38	0x3d9a1250	0.07523024
39	0xbda521fc	-0.08063123
40	0x3d493310	0.049120963
41	0xbe7df89d	-0.2480187
42	0x3e383768	0.17989886
43	0xbf0f16bf	-0.5589408
44	0x3d117d95	0.035520155
45	0xbd365259	-0.044512127
46	0xbd73b833	-0.059501838
47	0x3e9f4b2c	0.3111204
48	0x3e183cb4	0.14866906
49	0x3e20fab9	0.15720643
50	0xbf093734	-0.5359986
51	0xbee8a30d	-0.45436898
52	0x3e1ee266	0.15516052
53	0xbe94b678	-0.29045463
54	0x3d9eab51	0.0774752
55	0x3df63068	0.120209515
56	0x3dd86b56	0.10567348
57	0xba9730f2	-0.0011534973
58	0x3d326b9b	0.04355965
59	0x3e128d77	0.14311777
60	0xbe8a4b50	-0.27010584
61	0xbe83210d	-0.25611153
62	0x3d92fcb2	0.07177104
63	0x3eb7949c	0.35855567
